…
ses_14,train_losses_15,train_losses_16,train_losses_17,train_losses_18,train_losses_19,train_losses_20,train_losses_21,train_losses_22,train_losses_23,train_losses_24,train_losses_25,train_losses_26,train_losses_27,train_losses_28,train_losses_29,train_losses_30,train_losses_31,train_losses_32,train_losses_33,train_losses_34,train_losses_35,train_losses_36,train_losses_37,train_losses_38,train_losses_39,train_losses_40,train_losses_41,train_losses_42,train_losses_43,train_losses_44,train_losses_45,train_losses_46,train_losses_47,train_losses_48,train_losses_49
0,test_0,"Sequential( (batchnorm0): BatchNorm2d(3, eps=1e-05, momentum=0.1, affine=True, track_running_stats=True) (conv1): Conv2d(3, 32, kernel_size=(1, 1), stride=(1, 1)) (relu2): ReLU() (batchnorm3): BatchNorm2d(32, eps=1e-05, momentum=0.1, affine=True, track_running_stats=True) (flatten4): Flatten() (linear5): Linear(in_features=32768, out_features=30, bias=True) (leaky_relu6): LeakyReLU(negative_slope=0.14621972449574405) (batchnorm1D7): BatchNorm1d(30, eps=1e-05, momentum=0.1, affine=True, track_running_stats=True) (linear8): Linear(in_features=30, out_features=195, bias=True) (relu9): ReLU() (dropout10): Dropout(p=0.9973070926666014) (linear11): Linear(in_features=195, out_features=10, bias=True) )",1024,512,CrossEntropyLoss(),550,991333,"Adam ( Parameter Group 0 amsgrad: False betas: (0.9, 0.999) eps: 1e-08 initial_lr: 0.001 lr: 0.001 weight_decay: 0 )",512,"[0.5224765539169312, -0.0068773748353123665, 0.009281739592552185, -0.15632708370685577, 0.5830761194229126, 0.0850677639245987, 0.0074161384254693985, -0.42207014560699463, 0.0359313860535
…
0.14118026196956635, 0.050338540226221085, 0.4327217638492584, 0.2678954303264618, 0.38650912046432495, 0.09616637229919434, 0.19781537353992462, 0.2861071228981018, 0.06467627733945847, 0.01849532127380371, 0.11911235004663467, 0.06912695616483688, 0.565870463848114, 0.11469566076993942]","[0.9267194867134094, 0.0721791684627533, 4.218630790710449, 1.734020709991455, 3.938318967819214, 0.7198998928070068, 196.2683868408203, 2.7781572341918945, 0.4000493884086609, 0.10030397027730942, 9.156426429748535, 1.0240967273712158, 31.738523483276367, 0.3440871238708496]",… 1,test_1,"Sequential( (conv0): Conv2d(3, 27, kernel_size=(1, 1), stride=(1, 1)) (tanh1): Tanh() (dropout2): Dropout2d(p=0.8193881872857484, inplace=False) (conv3): Conv2d(27, 26, kernel_size=(13, 13), stride=(1, 1)) (tanh4): Tanh() (batchnorm5): BatchNorm2d(26, eps=1e-05, momentum=0.1, affine=True, track_running_stats=True) (flatten6): Flatten() (linear7): Linear(in_features=10400, out_features=28, bias=True) (leaky_relu8): LeakyReLU(negative_slope=0.6564930327253029) (batchnorm1D9): BatchNorm1d(28, eps=1e-05, momentum=0.1, affine=True, track_running_stats=True) (linear10): Linear(in_features=28, out_features=10, bias=True) (softmax11): Softmax(dim=None) )",1024,512,CrossEntropyLoss(),404,410398,"Adam ( Parameter Group 0 amsgrad: False betas: (0.9, 0.999) eps: 1e-08 initial_lr: 0.001 lr: 0.001 weight_decay: 0 )",512,"[-0.0021555155981332064, -0.006358039565384388, -0.0004243407747708261, 0.4248126149177551, 0.9156673550605774, 0.016436293721199036, 0.0013064780505374074, -0
…
289355278015137, -0.049290891736745834, -0.06821778416633606, -0.018561141565442085]","[0.10029235482215881, 0.12131558358669281, 0.20208044350147247, 1.862346887588501, 0.37415415048599243, 0.2786104679107666, 0.1866777092218399, 0.525959312915802, 0.3515665531158447, 0.18385754525661469, 0.8430446982383728, 0.2274446189403534]","[0.8972517848014832, 0.619472086429596, 69.60417938232422, 9.560361862182617, 5.029850482940674, 1.395570993423462, 100.73909759521484, 3.3441200256347656, 18.235952377319336, 0.9903159141540527, 14.127812385559082, 0.6848536729812622]",… 2,test_2,"Sequential( (conv0): Conv2d(3, 29, kernel_size=(1, 1), stride=(1, 1)) (relu1): ReLU() (dropout2): Dropout2d(p=0.6348318118453985, inplace=False) (conv3): Conv2d(29, 27, kernel_size=(9, 9), stride=(1, 1)) (leaky_relu4): LeakyReLU(negative_slope=0.053619945893145116) (dropout5): Dropout2d(p=0.940558323335441, inplace=False) (conv6): Conv2d(27, 32, kernel_size=(13, 13), stride=(1, 1)) (leaky_relu7): LeakyReLU(negative_slope=0.22223360185224517) (maxpool8): MaxPool2d(kernel_size=5, stride=5, padding=0, dilation=1, ceil_mode=False) (flatten9): Flatten() (linear10): Linear(in_features=128, out_features=29, bias=True) (leaky_relu11): LeakyReLU(negative_slope=0.8917734579089613) (dropout12): Dropout(p=0.27828255964176163, inplace=False) (linear13): Linear(in_features=29, out_features=10, bias=True) )",1024,512,CrossEntropyLoss(),547,213655,"Adam ( Parameter Group 0 amsgrad: False betas: (0.9, 0.999) eps: 1e-08 initial_lr: 0.001 lr: 0.001 weight_decay: 0 )",512,"[-0.010773975402116776, -0.0706828385591507, -0.036847423762083054, 0.05959660932421684, 0.007168813608586788, 0.07538279891014099, -0.0008127988548949361, -0.1852685660123825, -0.00044855207670480013, -0.03130483254790306]","[0.05408034473657608, 0.1780650019645691, 0.1892363429069519, 0.02117794007062912, 0.18124620616436005, 1.9538061618804932, 0.10165688395500183, 2.0565383434295654, 0.04554487392306328, 0.29269322752952576]","[0.5114896297454834, 1.0162115097045898, 48.55180740356445, 0.32796117663383484, 69.31178283691406, 10.886687278747559, 6.192929744720459, 10.927818298339844, 0.7743005752563477, 0.883642315864563]",… 3,test_3,"Sequential( (selu0): SELU() (dropout1): Dropout2d(p=0.8857822082534121) (relu2): ReLU() (batchnorm3): BatchNorm2d(3, eps=1e-05, momentum=0.1, affine=True, track_running_stats=True) (selu4): SELU() (relu5): ReLU() (selu6): SELU() (conv7): Conv2d(3, 27, kernel_size=(1, 1), stride=(1, 1)) (flatten8): Flatten() (linear9): Linear(in_features=27648, out_features=26, bias=True) (leaky_relu10): LeakyReLU(negative_slope=0.8942847747922679) (tanh11): Tanh() (softmax12): Softmax() (relu13): ReLU() (linear14): Linear(in_features=26, out_features=10, bias=True) (softmax15): Softmax() )",1024,512,CrossEntropyLoss(),975,719258,"Adam ( Parameter Group 0 amsgrad: False betas: (0.9, 0.999) eps: 1e-08 initial_lr: 0.001 lr: 0.001 weight_decay: 0 )",512,"[0.6482269763946533, 0.13050329685211182, 0.030598798766732216, -0.022058118134737015, -0.0065224068239331245, -0.24085932970046997, -1.6432760953903198, 0.05841032415628433]","[0.03889128193259239, 0.022430328652262688, 0.4764893651008606, 0.4039529860019684, 0.22435921430587769, 0.1874058097600937, 7.731476306915283, 0.24389907717704773]","[1.1241083145141602, 0.2282532900571823, 4.270737648010254, 2.062950849533081, 190.30296325683594, 1.5447871685028076, 127.21636962890625, 0.7546511888504028]",… 4,test_4,"Sequential( (conv0): Conv2d(3, 26, kernel_size=(1, 1), stride=(1, 1)) (relu1): ReLU() (batchnorm2): BatchNorm2d(26, eps=1e-05, momentum=0.1, affine=True, track_running_stats=True) (conv3): Conv2d(26, 28, kernel_size=(7, 7), stride=(1, 1)) (relu4): ReLU() (batchnorm5): BatchNorm2d(28, eps=1e-05, momentum=0.1, affine=True, track_running_stats=True) (flatten6): Flatten() (linear7): Linear(in_features=18928, out_features=27, bias=True) (relu8): ReLU() (dropout9): Dropout(p=0.9454110130449973) (linear10): Linear(in_features=27, out_features=10, bias=True) )",1024,512,CrossEntropyLoss(),439,547275,"Adam ( Parameter Group 0 amsgrad: False betas: (0.9, 0.999) eps: 1e-08 initial_lr: 0.001 lr: 0.001 weight_decay: 0 )",512,"[-0.010882174596190453, -0.14005565643310547, 0.4994511902332306, 0.14069584012031555, -0.02098122611641884, -0.09490932524204254, 0.1754409670829773, 0.0013508462579920888, 0.00473748240619
…
, 0.1623745858669281, 0.20417489111423492, 0.18432675302028656, 0.0026119716931134462, 0.12703655660152435, 0.03521065041422844, 0.2384418100118637, 0.25076594948768616]","[3.391794204711914, 2.1989951133728027, 2.9271132946014404, 0.9749473333358765, 30.922277450561523, 1.1737874746322632, 1.3338621854782104, 0.015339449048042297, 90.8791732788086, 0.4941583275794983, 4.585810661315918, 0.762459933757782]",… 5,test_5,"Sequential( (maxpool0): MaxPool2d(kernel_size=1, stride=1, padding=0, dilation=1, ceil_mode=False) (relu1): ReLU() (selu2): SELU() (relu3): ReLU() (flatten4): Flatten() (linear5): Linear(in_features=3072, out_features=30, bias=True) (linear6): Linear(in_features=30, out_features=10, bias=True) )",1024,512,CrossEntropyLoss(),836,92500,"Adam ( Parameter Group 0 amsgrad: False betas: (0.9, 0.999) eps: 1e-08 initial_lr: 0.001 lr: 0.001 weight_decay: 0 )",512,"[-2.851098724931944e-05, 0.07291825115680695, -0.0006786329904571176, 0.0559561625123024]","[0.18029044568538666, 0.42862001061439514, 0.08277866244316101, 0.4077075123786926]","[54.732032775878906, 2.3424878120422363, 1.4314250946044922, 1.2358556985855103]",… 6,test_6,"Sequential( (batchnorm0): BatchNorm2d(3, eps=1e-05, momentum=0.1, affine=True, track_running_stats=True) (conv1): Conv2d(3, 32, kernel_size=(1, 1), stride=(1, 1)) (selu2): SELU() (dropout3): Dropout2d(p=0.9617171318485935, inplace=False) (conv4): Conv2d(32, 28, kernel_size=(13, 13), stride=(1, 1)) (relu5): ReLU() (dropout6): Dropout2d(p=0.8510013641074554, inplace=False) (flatten7): Flatten() (linear8): Linear(in_features=11200, out_features=32, bias=True) (leaky_relu9): LeakyReLU(negative_slope=0.7982816175219327) (dropout10): Dropout(p=0.09737814141369106, inplace=False) (linear11): Linear(in_features=32, out_features=10, bias=True) (softmax12): Softmax(dim=None) (batchnorm1D13): BatchNorm1d(10, eps=1e-05, momentum=0.1, affine=True, track_running_stats=True) )",1024,512,CrossEntropyLoss(),404,510368,"Adam ( Parameter Group 0 amsgrad: False betas: (0.9, 0.999) eps: 1e-08 initial_lr: 0.001 lr: 0.001 weight_decay: 0 )",512,"[1.0945417881011963, 0.1607176512479782, 0.04381376504898071, -0.015614857897162437, -0.0006939445738680661, 0.010417832992970943, -0.012316330336034298, 0.3241922855
…
44267266988754, -0.10639078915119171, 0.02884347178041935, 0.03425312042236328]","[0.29806822538375854, 0.16561484336853027, 0.3555360436439514, 0.303603857755661, 0.09027348458766937, 0.14368818700313568, 0.09831228107213974, 0.5448895692825317, 0.157752126455307, 0.9704705476760864, 0.04549505189061165, 0.0037218614015728235]","[1.9421004056930542, 0.36379528045654297, 3.491825580596924, 1.692700982093811, 35.12925338745117, 0.7486580610275269, 59.31612014770508, 3.545034170150757, 2.887997627258301, 2.930786371231079, 0.16415740549564362, 0.10889182239770889]",… 7,test_7,"Sequential( (conv0): Conv2d(3, 31, kernel_size=(1, 1), stride=(1, 1)) (selu1): SELU() (dropout2): Dropout2d(p=0.5134317029631311, inplace=False) (flatten3): Flatten() (linear4): Linear(in_features=31744, out_features=29, bias=True) (selu5): SELU() (batchnorm1D6): BatchNorm1d(29, eps=1e-05, momentum=0.1, affine=True, track_running_stats=True) (linear7): Linear(in_features=29, out_features=35, bias=True) (relu8): ReLU() (dropout9): Dropout(p=0.47656710276234393, inplace=False) (linear10): Linear(in_features=35, out_features=10, bias=True) (batchnorm1D11): BatchNorm1d(10, eps=1e-05, momentum=0.1, affine=True, track_running_stats=True) )",1024,512,CrossEntropyLoss(),404,922217,"Adam ( Parameter Group 0 amsgrad: False betas: (0.9, 0.999) eps: 1e-08 initial_lr: 0.001 lr: 0.001 weight_decay: 0 )",512,"[-0.057822298258543015, -0.5394918322563171, 3.143719368381426e-05, -2.0163097381591797, 1.0239827632904053, 0.15925061702728271, -0.04382516071200371, -0.11107222735
…
0.02873196080327034, 3.644761800765991, -0.009654617868363857]","[1.0355349779129028, 1.3277968168258667, 0.1897922158241272, 2.797990083694458, 0.06223991513252258, 0.0683903768658638, 0.21930620074272156, 0.137660413980484, 0.22212253510951996, 0.12173579633235931, 0.5972828269004822, 0.7065767049789429]","[9.948143005371094, 7.868539810180664, 182.09921264648438, 18.36040687561035, 5.524142265319824, 0.9308195114135742, 7.1216559410095215, 1.0373570919036865, 4.2118964195251465, 0.376339852809906, 11.664201736450195, 2.119950294494629]",… 8,test_8,"Sequential( (flatten0): Flatten() (linear1): Linear(in_features=3072, out_features=27, bias=True) (leaky_relu2): LeakyReLU(negative_slope=0.7824997051929541) (dropout3): Dropout(p=0.9655781174619789) (linear4): Linear(in_features=27, out_features=252, bias=True) (leaky_relu5): LeakyReLU(negative_slope=0.5411607450062276) (batchnorm1D6): BatchNorm1d(252, eps=1e-05, momentum=0.1, affine=True, track_running_stats=True) (linear7): Linear(in_features=252, out_features=124, bias=True) (leaky_relu8): LeakyReLU(negative_slope=0.4756560481709028) (dropout9): Dropout(p=0.035211528136755876) (linear10): Linear(in_features=124, out_features=10, bias=True) (batchnorm1D11): BatchNorm1d(10, eps=1e-05, momentum=0.1, affine=True, track_running_stats=True) )",1024,512,CrossEntropyLoss(),550,123173,"Adam ( Parameter Group 0 amsgrad: False betas: (0.9, 0.999) eps: 1e-08 initial_lr: 0.001 lr: 0.001 weight_decay: 0 )",512,"[0.0012286514975130558, -1.2800425291061401, -0.005247663706541061, 0.5704531073570251, 0.5163494348526001, -0.011521109379827976, 0.016924936324357986, -0.0836118757
…
 0.031139366328716278, 0.029628518968820572, 1.0353732109069824, -0.0016566187841817737]","[0.19386352598667145, 5.389634609222412, 0.24111095070838928, 5.569758415222168, 0.33819580078125, 0.1713772714138031, 0.1968172937631607, 0.29532960057258606, 0.2177998274564743, 0.051705487072467804, 0.16490671038627625, 0.12587177753448486]","[55.83348083496094, 28.275287628173828, 19.89161491394043, 88.70499420166016, 9.792644500732422, 2.7212791442871094, 34.9194450378418, 3.4051263332366943, 7.74445104598999, 0.1812169998884201, 3.311302900314331, 0.3776516914367676]",… 9,test_9,"Sequential( (conv0): Conv2d(3, 29, kernel_size=(1, 1), stride=(1, 1)) (leaky_relu1): LeakyReLU(negative_slope=0.7409422538545755) (batchnorm2): BatchNorm2d(29, eps=1e-05, momentum=0.1, affine=True, track_running_stats=True) (batchnorm3): BatchNorm2d(29, eps=1e-05, momentum=0.1, affine=True, track_running_stats=True) (conv4): Conv2d(29, 32, kernel_size=(9, 9), stride=(1, 1)) (softmax5): Softmax() (batchnorm6): BatchNorm2d(32, eps=1e-05, momentum=0.1, affine=True, track_running_stats=True) (selu7): SELU() (batchnorm8): BatchNorm2d(32, eps=1e-05, momentum=0.1, affine=True, track_running_stats=True) (tanh9): Tanh() (leaky_relu10): LeakyReLU(negative_slope=0.9376688870713511) (leaky_relu11): LeakyReLU(negative_slope=0.26370458950596687) (selu12): SELU() (selu13): SELU() (tanh14): Tanh() (maxpool15): MaxPool2d(kernel_size=5, stride=5, padding=0, dilation=1, ceil_mode=False) (leaky_relu16): LeakyReLU(negative_slope=0.45043597488397646) (flatten17): Flatten() (linear18): Linear(in_features=512, out_features=32, bias=True) (linear19): Linear(in_features=32, out_features=10, bias=True) )",1024,512,CrossEntropyLoss(),550,92306,"Adam ( Parameter Group 0 amsgrad: False betas: (0.9, 0.999) eps: 1e-08 initial_lr: 0.001 lr: 0.001 weight_decay: 0 )",512,"[… ","[… ","[… ",… 10,test_10,"Sequential( (batchnorm0): BatchNorm2d(3, eps=1e-05, momentum=0.1, affine=True, track_running_stats=True) (conv1): Conv2d(3, 26, kernel_size=(1, 1), stride=(1, 1)) (tanh2): Tanh() (dropout3): Dropout2d(p=0.19298478914695238, inplace=False) (flatten4): Flatten() (linear5): Linear(in_features=26624, out_features=29, bias=True) (tanh6): Tanh() (batchnorm1D7): BatchNorm1d(29, eps=1e-05, momentum=0.1, affine=True, track_running_stats=True) (linear8): Linear(in_features=29, out_features=152, bias=True) (leaky_relu9): LeakyReLU(negative_slope=0.7371354295811469) (dropout10): Dropout(p=0.2673950501422495, inplace=False) (linear11): Linear(in_features=152, out_features=10, bias=True) (selu12): SELU() )",1024,512,CrossEntropyLoss(),438,778383,"Adam ( Parameter Group 0 amsgrad: False betas: (0.9, 0.999) eps: 1e-08 initial_lr: 0.001 lr: 0.001 weight_decay: 0 )",512,"[1.183256983757019, 0.0503559336066246, 0.0958050787448883, -0.1085590273141861, -0.0003775397199206054, 0.1220548078417778, 0.5616737604141235, -0.010783120058476925, 0.00
…
076066479087, -0.08012278378009796, 0.020453784614801407, 0.059966664761304855]","[0.09932302683591843, 0.09565979242324829, 0.7111268043518066, 0.8956245183944702, 0.1822948008775711, 1.1807770729064941, 0.05549206584692001, 0.04160654917359352, 0.148881733417511, 0.12649166584014893, 0.11382333934307098, 0.21879690885543823]","[2.054269313812256, 0.16096194088459015, 6.297216892242432, 4.512205123901367, 160.18084716796875, 6.282562255859375, 3.0389251708984375, 0.2276904135942459, 9.886104583740234, 1.8416866064071655, 4.507293224334717, 0.6832339763641357]",… 11,test_11,"Sequential( (conv0): Conv2d(3, 29, kernel_size=(1, 1), stride=(1, 1)) (selu1): SELU() (batchnorm2): BatchNorm2d(29, eps=1e-05, momentum=0.1, affine=True, track_running_stats=True) (conv3): Conv2d(29, 31, kernel_size=(7, 7), stride=(1, 1)) (tanh4): Tanh() (dropout5): Dropout2d(p=0.5645462288479584, inplace=False) (flatten6): Flatten() (linear7): Linear(in_features=20956, out_features=27, bias=True) (selu8): SELU() (dropout9): Dropout(p=0.4160887962186457, inplace=False) (linear10): Linear(in_features=27, out_features=10, bias=True) (batchnorm1D11): BatchNorm1d(10, eps=1e-05, momentum=0.1, affine=True, track_running_stats=True) )",1024,512,CrossEntropyLoss(),438,610395,"Adam ( Parameter Group 0 amsgrad: False betas: (0.9, 0.999) eps: 1e-08 initial_lr: 0.001 lr: 0.001 weight_decay: 0 )",512,"[-0.05905924737453461, -0.43999046087265015, 0.9174392819404602, -0.008967139758169651, 0.002613745629787445, -0.0375903882086277, 0.00020699063315987587, -3.77037429
…
10634306073188782, 0.031519319862127304, 3.7686119079589844, -0.0050776186399161816]","[0.5680655837059021, 0.9572522044181824, 0.39730969071388245, 0.16131806373596191, 0.1887299120426178, 0.2709726393222809, 0.17672847211360931, 1.1738941669464111, 0.2419128119945526, 0.07379177957773209, 0.463535338640213, 0.4048824906349182]","[5.296746730804443, 5.592087745666504, 5.369272708892822, 0.8549796342849731, 39.61460876464844, 1.498862624168396, 132.93597412109375, 20.485437393188477, 4.335407257080078, 0.24277913570404053, 11.998255729675293, 1.21475350856781]",… 12,test_12,"Sequential( (conv0): Conv2d(3, 28, kernel_size=(1, 1), stride=(1, 1)) (tanh1): Tanh() (batchnorm2): BatchNorm2d(28, eps=1e-05, momentum=0.1, affine=True, track_running_stats=True) (conv3): Conv2d(28, 28, kernel_size=(7, 7), stride=(1, 1)) (tanh4): Tanh() (batchnorm5): BatchNorm2d(28, eps=1e-05, momentum=0.1, affine=True, track_running_stats=True) (flatten6): Flatten() (linear7): Linear(in_features=18928, out_features=27, bias=True) (selu8): SELU() (batchnorm1D9): BatchNorm1d(27, eps=1e-05, momentum=0.1, affine=True, track_running_stats=True) (linear10): Linear(in_features=27, out_features=10, bias=True) )",1024,512,CrossEntropyLoss(),404,550085,"Adam ( Parameter Group 0 amsgrad: False betas: (0.9, 0.999) eps: 1e-08 initial_lr: 0.001 lr: 0.001 weight_decay: 0 )",512,"[0.0018295468762516975, -0.12526409327983856, 1.0810569524765015, -0.06370177865028381, -0.002761304611340165, 0.0401887483894825, 1.0010582208633423, -0.04870374873280525, 0.000603406981099
…
,"[0.3697771430015564, 0.6949831247329712, 0.13424785435199738, 0.27377253770828247, 0.12377053499221802, 0.23687784373760223, 0.27323874831199646, 0.11786602437496185, 0.131617471575737, 0.23793315887451172, 0.11912154406309128, 0.1314133107662201, 0.5924034714698792, 0.15310071408748627]","[3.3688716888427734, 3.671565532684326, 5.762791633605957, 1.46195387840271, 24.264745712280273, 1.249089241027832, 5.484075546264648, 0.6644638776779175, 94.09184265136719, 1.7097541093826294, 13.411629676818848, 0.7543032169342041, 9.881314277648926, 0.45975905656814575]",… 13,test_13,"Sequential( (conv0): Conv2d(3, 28, kernel_size=(1, 1), stride=(1, 1)) (relu1): ReLU() (batchnorm2): BatchNorm2d(28, eps=1e-05, momentum=0.1, affine=True, track_running_stats=True) (conv3): Conv2d(28, 27, kernel_size=(3, 3), stride=(1, 1)) (tanh4): Tanh() (dropout5): Dropout2d(p=0.6497856915102868) (flatten6): Flatten() (linear7): Linear(in_features=24300, out_features=30, bias=True) (tanh8): Tanh() (dropout9): Dropout(p=0.5312161363428861) (linear10): Linear(in_features=30, out_features=10, bias=True) (tanh11): Tanh() (tanh12): Tanh() )",1024,512,CrossEntropyLoss(),550,736339,"Adam ( Parameter Group 0 amsgrad: False betas: (0.9, 0.999) eps: 1e-08 initial_lr: 0.001 lr: 0.001 weight_decay: 0 )",512,"[0.019884437322616577, -0.19263580441474915, 0.48437342047691345, 0.08545596897602081, 0.001230017514899373, -0.03052699565887451, -0.0014020665548741817, 0.006447847932577133, 2.8987228688492905e-06, -1.4702430963516235]","[0.38000810146331787, 0.3986465632915497, 0.33255404233932495, 0.08615539968013763, 0.20151826739311218, 0.10246385633945465, 0.21454954147338867, 0.5918969511985779, 0.20059439539909363, 0.7222968339920044]","[3.466832160949707, 2.308647871017456, 3.0911619663238525, 0.6363100409507751, 16.62159538269043, 0.5460138320922852, 183.18939208984375, 3.1876580715179443, 3.4686012268066406, 5.129479885101318]",… 14,test_14,"Sequential( (conv0): Conv2d(3, 29, kernel_size=(1, 1), stride=(1, 1)) (tanh1): Tanh() (batchnorm2): BatchNorm2d(29, eps=1e-05, momentum=0.1, affine=True, track_running_stats=True) (flatten3): Flatten() (linear4): Linear(in_features=29696, out_features=27, bias=True) (tanh5): Tanh() (dropout6): Dropout(p=0.13989547655221868) (linear7): Linear(in_features=27, out_features=207, bias=True) (leaky_relu8): LeakyReLU(negative_slope=0.23473508914437136) (batchnorm1D9): BatchNorm1d(207, eps=1e-05, momentum=0.1, affine=True, track_running_stats=True) (linear10): Linear(in_features=207, out_features=10, bias=True) (batchnorm1D11): BatchNorm1d(10, eps=1e-05, momentum=0.1, affine=True, track_running_stats=True) )",1024,512,CrossEntropyLoss(),550,810303,"Adam ( Parameter Group 0 amsgrad: False betas: (0.9, 0.999) eps: 1e-08 initial_lr: 0.001 lr: 0.001 weight_decay: 0 )",512,"[-0.2154626101255417, -0.4729003310203552, 0.24271363019943237, 0.0014903955161571503, 0.000446636084234342, -0.036172930151224136, -0.0027611174155026674, -0.4516103
…
5249633789062, 3.0770184993743896, 0.21135345101356506, 0.019602587446570396, 0.1849418729543686, 0.35720258951187134, 0.2419038712978363, 0.49820250272750854, 0.15027838945388794, 0.02943704091012478, 0.23058155179023743, 0.06914796680212021, 0.5088173151016235, 0.6288025379180908]","[12.55629825592041, 16.480005264282227, 1.7202194929122925, 0.10403718799352646, 165.6025848388672, 1.831055760383606, 18.08420181274414, 9.661698341369629, 8.492179870605469, 0.422537237405777, 10.506465911865234, 0.21233507990837097, 11.823140144348145, 1.8867576122283936]",… 15,test_15,"Sequential( (batchnorm0): BatchNorm2d(3, eps=1e-05, momentum=0.1, affine=True, track_running_stats=True) (leaky_relu1): LeakyReLU(negative_slope=0.47179440699268227) (maxpool2): MaxPool2d(kernel_size=1, stride=1, padding=0, dilation=1, ceil_mode=False) (flatten3): Flatten() (linear4): Linear(in_features=3072, out_features=29, bias=True) (linear5): Linear(in_features=29, out_features=10, bias=True) (batchnorm1D6): BatchNorm1d(10, eps=1e-05, momentum=0.1, affine=True, track_running_stats=True) )",1024,512,CrossEntropyLoss(),925,89443,"Adam ( Parameter Group 0 amsgrad: False betas: (0.9, 0.999) eps: 1e-08 initial_lr: 0.001 lr: 0.001 weight_decay: 0 )",512,"[0.3997522294521332, 0.27832701802253723, -0.00026874657487496734, 0.016265196725726128, -0.014245514757931232, 0.013131968677043915, 2.1149137020111084, 0.007963523268699646]","[0.06619268655776978, 0.3790930211544037, 0.24843473732471466, 0.04583320766687393, 0.286371111869812, 0.09571819007396698, 0.2533981502056122, 0.3171055316925049]","[0.6986904740333557, 0.720986008644104, 74.15145874023438, 0.2578589916229248, 4.874349594116211, 0.290141761302948, 6.731010437011719, 0.9516497254371643]",… 16,test_16,"Sequential( (batchnorm0): BatchNorm2d(3, eps=1e-05, momentum=0.1, affine=True, track_running_stats=True) (conv1): Conv2d(3, 28, kernel_size=(1, 1), stride=(1, 1)) (leaky_relu2): LeakyReLU(negative_slope=0.09164794238146912) (dropout3): Dropout2d(p=0.3345797463885728, inplace=False) (flatten4): Flatten() (linear5): Linear(in_features=28672, out_features=29, bias=True) (leaky_relu6): LeakyReLU(negative_slope=0.8328222852659963) (batchnorm1D7): BatchNorm1d(29, eps=1e-05, momentum=0.1, affine=True, track_running_stats=True) (linear8): Linear(in_features=29, out_features=80, bias=True) (tanh9): Tanh() (dropout10): Dropout(p=0.3090648429731572, inplace=False) (linear11): Linear(in_features=80, out_features=10, bias=True) (batchnorm1D12): BatchNorm1d(10, eps=1e-05, momentum=0.1, affine=True, track_running_stats=True) )",1024,512,CrossEntropyLoss(),404,834923,"Adam ( Parameter Group 0 amsgrad: False betas: (0.9, 0.999) eps: 1e-08 initial_lr: 0.001 lr: 0.001 weight_decay: 0 )",512,"[1.1185721158981323, 0.033206649124622345, -0.008134587667882442, -0.19219841063022614, -0.0005578213604167104, -0.010811550542712212, 2.1452794075012207, -0.07879018
…
0937263071537018, 0.11070039123296738, 0.405461847782135, 0.2301429808139801, 0.18262897431850433, 0.9924908876419067, 0.17260710895061493, 0.4901766777038574, 0.4037018120288849, 0.49382251501083374, 0.19719746708869934, 0.06921710073947906, 0.4546344578266144, 0.5963008999824524]","[1.9435880184173584, 0.1667848825454712, 3.694685459136963, 1.5698415040969849, 166.53268432617188, 5.252090930938721, 11.58873176574707, 2.6282460689544678, 19.446426391601562, 4.398597717285156, 5.575682163238525, 0.22307929396629333, 10.106422424316406, 1.7893043756484985]",… 17,test_17,"Sequential( (batchnorm0): BatchNorm2d(3, eps=1e-05, momentum=0.1, affine=True, track_running_stats=True) (conv1): Conv2d(3, 32, kernel_size=(1, 1), stride=(1, 1)) (selu2): SELU() (batchnorm3): BatchNorm2d(32, eps=1e-05, momentum=0.1, affine=True, track_running_stats=True) (flatten4): Flatten() (linear5): Linear(in_features=32768, out_features=29, bias=True) (relu6): ReLU() (dropout7): Dropout(p=0.3458693357643531, inplace=False) (linear8): Linear(in_features=29, out_features=236, bias=True) (tanh9): Tanh() (batchnorm1D10): BatchNorm1d(236, eps=1e-05, momentum=0.1, affine=True, track_running_stats=True) (linear11): Linear(in_features=236, out_features=10, bias=True) (softmax12): Softmax(dim=None) (relu13): ReLU() )",1024,512,CrossEntropyLoss(),438,960421,"Adam ( Parameter Group 0 amsgrad: False betas: (0.9, 0.999) eps: 1e-08 initial_lr: 0.001 lr: 0.001 weight_decay: 0 )",512,"[1.2871662378311157, 0.4288780093193054, -0.029006898403167725, -0.5551497340202332, 0.6317076086997986, 0.025032497942447662, 0.001037536421
…
,"[0.04700523242354393, 0.3045767843723297, 0.675915002822876, 1.0811980962753296, 0.6193249821662903, 0.15425936877727509, 0.18259763717651367, 0.09801292419433594, 0.2377835512161255, 0.4290645122528076, 0.17532376945018768, 0.11977986246347427, 0.25468188524246216, 0.11762712150812149]","[2.2304279804229736, 0.8586868643760681, 6.594132423400879, 6.789755821228027, 4.96590518951416, 0.8704748153686523, 178.00242614746094, 1.371108889579773, 19.672855377197266, 6.587642192840576, 20.667186737060547, 1.8362098932266235, 12.370863914489746, 0.3581303656101227]",… 18,test_18,"Sequential( (conv0): Conv2d(3, 30, kernel_size=(1, 1), stride=(1, 1)) (relu1): ReLU() (dropout2): Dropout2d(p=0.4606386367466455) (conv3): Conv2d(30, 30, kernel_size=(11, 11), stride=(1, 1)) (tanh4): Tanh() (dropout5): Dropout2d(p=0.33791838961735887) (flatten6): Flatten() (linear7): Linear(in_features=14520, out_features=27, bias=True) (leaky_relu8): LeakyReLU(negative_slope=0.747180218162779) (batchnorm1D9): BatchNorm1d(27, eps=1e-05, momentum=0.1, affine=True, track_running_stats=True) (linear10): Linear(in_features=27, out_features=10, bias=True) (batchnorm1D11): BatchNorm1d(10, eps=1e-05, momentum=0.1, affine=True, track_running_stats=True) (relu12): ReLU() )",1024,512,CrossEntropyLoss(),550,501471,"Adam ( Parameter Group 0 amsgrad: False betas: (0.9, 0.999) eps: 1e-08 initial_lr: 0.001 lr: 0.001 weight_decay: 0 )",512,"[-0.01409615483134985, -0.3045486807823181, 0.00881761871278286, -0.1722520887851715, -0.0002909254690166563, -0.3395806849002838, 0.4746083319187164
…
.06715383380651474, 3.942467451095581, 1.740167260169983]","[0.3772560656070709, 0.2841890752315521, 0.3066456913948059, 0.5696710348129272, 0.21662896871566772, 2.1924514770507812, 0.10125207155942917, 0.26500263810157776, 0.23995138704776764, 0.26676860451698303, 0.5519484877586365, 0.6372371912002563]","[3.5615382194519043, 2.263766050338745, 101.23443603515625, 3.2095720767974854, 135.6380615234375, 11.317748069763184, 2.5195999145507812, 1.3585195541381836, 3.94240665435791, 0.8280010223388672, 12.576658248901367, 5.82550048828125]",… 19,test_19,"Sequential( (flatten0): Flatten() (linear1): Linear(in_features=3072, out_features=31, bias=True) (selu2): SELU() (batchnorm1D3): BatchNorm1d(31, eps=1e-05, momentum=0.1, affine=True, track_running_stats=True) (linear4): Linear(in_features=31, out_features=229, bias=True) (tanh5): Tanh() (batchnorm1D6): BatchNorm1d(229, eps=1e-05, momentum=0.1, affine=True, track_running_stats=True) (linear7): Linear(in_features=229, out_features=185, bias=True) (leaky_relu8): LeakyReLU(negative_slope=0.9132376866103438) (dropout9): Dropout(p=0.4739657579564829, inplace=False) (linear10): Linear(in_features=185, out_features=10, bias=True) )",1024,512,CrossEntropyLoss(),404,147521,"Adam ( Parameter Group 0 amsgrad: False betas: (0.9, 0.999) eps: 1e-08 initial_lr: 0.001 lr: 0.001 weight_decay: 0 )",512,"[-5.005982893635519e-05, -0.30222856998443604, 2.109018325805664, 0.2946512699127197, 0.0019519795896485448, 0.05525894835591316, 0.8513420820236206, 0.0014100761618465185, 0.0006665285327471793, -0.004561677575111389, -0.0007814547861926258, 0.030297446995973587]","[0.16535571217536926, 0.8671665191650391, 0.11217482388019562, 0.3928377330303192, 0.2972460985183716, 0.7539653182029724, 0.07457569241523743, 0.0653487965464592, 0.15932811796665192, 0.24123218655586243, 0.094052754342556, 0.25618600845336914]","[51.027984619140625, 5.038942337036133, 11.758581161499023, 2.7057433128356934, 25.043413162231445, 11.415297508239746, 12.932260513305664, 0.986975908279419, 32.79402160644531, 3.272820472717285, 4.044407844543457, 0.7745068073272705]",… 20,test_20,"Sequential( (conv0): Conv2d(3, 27, kernel_size=(1, 1), stride=(1, 1)) (leaky_relu1): LeakyReLU(negative_slope=0.44207408613079846) (batchnorm2): BatchNorm2d(27, eps=1e-05, momentum=0.1, affine=True, track_running_stats=True) (conv3): Conv2d(27, 29, kernel_size=(1, 1), stride=(1, 1)) (selu4): SELU() (batchnorm5): BatchNorm2d(29, eps=1e-05, momentum=0.1, affine=True, track_running_stats=True) (conv6): Conv2d(29, 29, kernel_size=(11, 11), stride=(1, 1)) (relu7): ReLU() (dropout8): Dropout2d(p=0.20006112139512) (flatten9): Flatten() (linear10): Linear(in_features=14036, out_features=27, bias=True) (selu11): SELU() (batchnorm1D12): BatchNorm1d(27, eps=1e-05, momentum=0.1, affine=True, track_running_stats=True) (linear13): Linear(in_features=27, out_features=10, bias=True) )",1024,512,CrossEntropyLoss(),556,482155,"Adam ( Parameter Group 0 amsgrad: False betas: (0.9, 0.999) eps: 1e-08 initial_lr: 0.001 lr: 0.001 weight_decay: 0 )",512,"[… ","[… ","[… ",… 21,test_21,"Sequential( (batchnorm0): BatchNorm2d(3, eps=1e-05, momentum=0.1, affine=True, track_running_stats=True) (conv1): Conv2d(3, 32, kernel_size=(1, 1), stride=(1, 1)) (relu2): ReLU() (batchnorm3): BatchNorm2d(32, eps=1e-05, momentum=0.1, affine=True, track_running_stats=True) (flatten4): Flatten() (linear5): Linear(in_features=32768, out_features=32, bias=True) (leaky_relu6): LeakyReLU(negative_slope=0.4116366573368069) (dropout7): Dropout(p=0.6153829629679394) (linear8): Linear(in_features=32, out_features=217, bias=True) (relu9): ReLU() (batchnorm1D10): BatchNorm1d(217, eps=1e-05, momentum=0.1, affine=True, track_running_stats=True) (linear11): Linear(in_features=217, out_features=10, bias=True) (dropout12): Dropout(p=0.31006199844450777) (softmax13): Softmax() )",1024,512,CrossEntropyLoss(),550,1058581,"Adam ( Parameter Group 0 amsgrad: False betas: (0.9, 0.999) eps: 1e-08 initial_lr: 0.001 lr: 0.001 weight_decay: 0 )",512,"[0.7937893271446228, 0.06035008281469345, 0.009647189639508724, -0.15218687057495117, 0.5360294580459595, 0.0647392123937
…
, 0.2768029272556305, 0.443088173866272, 0.0589565709233284, 0.209571972489357, 0.09355959296226501, 0.3026474118232727, 1.2142393589019775, 0.3481246829032898, 0.23211824893951416, 0.4758486747741699, 0.1372694969177246]","[1.3809949159622192, 0.19300280511379242, 4.294748783111572, 1.765322208404541, 3.909043788909912, 0.49180227518081665, 215.04234313964844, 1.2530207633972168, 25.334901809692383, 18.48236656188965, 20.422395706176758, 7.510491847991943, 24.137632369995117, 1.098015308380127]",… 22,test_22,"Sequential( (leaky_relu0): LeakyReLU(negative_slope=0.26345009572289013) (batchnorm1): BatchNorm2d(3, eps=1e-05, momentum=0.1, affine=True, track_running_stats=True) (softmax2): Softmax() (flatten3): Flatten() (linear4): Linear(in_features=3072, out_features=26, bias=True) (linear5): Linear(in_features=26, out_features=255, bias=True) (dropout6): Dropout(p=0.7111997976373583) (batchnorm1D7): BatchNorm1d(255, eps=1e-05, momentum=0.1, affine=True, track_running_stats=True) (relu8): ReLU() (tanh9): Tanh() (dropout10): Dropout(p=0.17529976627703103) (softmax11): Softmax() (relu12): ReLU() (selu13): SELU() (linear14): Linear(in_features=255, out_features=10, bias=True) (tanh15): Tanh() (dropout16): Dropout(p=0.6033233392308578) )",1024,512,CrossEntropyLoss(),424,89859,"Adam ( Parameter Group 0 amsgrad: False betas: (0.9, 0.999) eps: 1e-08 initial_lr: 0.001 lr: 0.001 weight_decay: 0 )",512,"[2.177243232727051, -0.024567535147070885, 0.0005395367625169456, -0.0005265448708087206, 0.0009277031058445573, 0.007288741879165173, 2.9886889457702637, -0.6666417121887207, -0.32076528668403625, 0.1628786027431488]","[0.5528499484062195, 0.19239161908626556, 0.18295833468437195, 0.012341112829744816, 0.24144241213798523, 0.21185222268104553, 1.0053061246871948, 0.295041561126709, 4.296134948730469, 0.07389794290065765]","[3.8512918949127197, 0.2753901779651642, 51.7069206237793, 0.0617639422416687, 19.658065795898438, 3.3783740997314453, 50.343116760253906, 11.63767147064209, 217.50559997558594, 0.5607517957687378]",… 23,test_23,"Sequential( (conv0): Conv2d(3, 26, kernel_size=(1, 1), stride=(1, 1)) (tanh1): Tanh() (batchnorm2): BatchNorm2d(26, eps=1e-05, momentum=0.1, affine=True, track_running_stats=True) (conv3): Conv2d(26, 30, kernel_size=(5, 5), stride=(1, 1)) (relu4): ReLU() (batchnorm5): BatchNorm2d(30, eps=1e-05, momentum=0.1, affine=True, track_running_stats=True) (conv6): Conv2d(30, 31, kernel_size=(7, 7), stride=(1, 1)) (selu7): SELU() (maxpool8): MaxPool2d(kernel_size=5, stride=5, padding=0, dilation=1, ceil_mode=False) (flatten9): Flatten() (linear10): Linear(in_features=496, out_features=31, bias=True) (selu11): SELU() (dropout12): Dropout(p=0.01996559013231536, inplace=False) (linear13): Linear(in_features=31, out_features=10, bias=True) )",1024,512,CrossEntropyLoss(),547,81074,"Adam ( Parameter Group 0 amsgrad: False betas: (0.9, 0.999) eps: 1e-08 initial_lr: 0.001 lr: 0.001 weight_decay: 0 )",512,"[-0.0646088644862175, -0.2654598653316498, 0.9499691128730774, 0.056886717677116394, -0.005189999472349882, -0.2867971360683441, 0.5715238451957703, 0.08325067907571793, -0.013097535818815231
…
.1749060153961182, 0.25844547152519226, 0.2558629810810089, 0.20034192502498627, 0.24721810221672058, 0.10036769509315491, 0.11198097467422485, 0.19584529101848602, 0.14325128495693207, 0.18367670476436615, 0.2768670618534088, 0.33009275794029236, 0.46507805585861206]","[5.083501815795898, 6.028457164764404, 5.013314247131348, 1.3117870092391968, 27.98489761352539, 2.059117317199707, 3.1766839027404785, 0.7560242414474487, 41.9002799987793, 2.027024507522583, 22.779333114624023, 1.6999274492263794, 5.913917064666748, 1.4349102973937988]",… 24,test_24,"Sequential( (flatten0): Flatten() (linear1): Linear(in_features=3072, out_features=26, bias=True) (relu2): ReLU() (dropout3): Dropout(p=0.5966403291453615, inplace=False) (linear4): Linear(in_features=26, out_features=69, bias=True) (selu5): SELU() (dropout6): Dropout(p=0.17049527822693178, inplace=False) (linear7): Linear(in_features=69, out_features=190, bias=True) (tanh8): Tanh() (batchnorm1D9): BatchNorm1d(190, eps=1e-05, momentum=0.1, affine=True, track_running_stats=True) (linear10): Linear(in_features=190, out_features=10, bias=True) (dropout11): Dropout(p=0.3674971146542746, inplace=False) )",1024,512,CrossEntropyLoss(),443,97351,"Adam ( Parameter Group 0 amsgrad: False betas: (0.9, 0.999) eps: 1e-08 initial_lr: 0.001 lr: 0.001 weight_decay: 0 )",512,"[0.0009702294482849538, -2.415525436401367, -0.06332767754793167, -0.9755002856254578, -0.0015413474757224321, -0.03980523720383644, 0.22075042128562927, -0.0008728231769055128, 0.0019073658622801304, -0.17979270219802856]","[0.169876366853714, 1.1317473649978638, 0.2753417193889618, 0.9782785773277283, 0.19179470837116241, 1.0483920574188232, 0.08015158027410507, 0.0600595623254776, 0.10960119962692261, 0.09554015845060349]","[48.01032257080078, 13.554525375366211, 11.96358871459961, 11.434090614318848, 21.960155487060547, 14.423446655273438, 3.236205816268921, 0.8257700204849243, 4.776871681213379, 0.6367145776748657]",… 25,test_25,"Sequential( (batchnorm0): BatchNorm2d(3, eps=1e-05, momentum=0.1, affine=True, track_running_stats=True) (conv1): Conv2d(3, 28, kernel_size=(1, 1), stride=(1, 1)) (selu2): SELU() (dropout3): Dropout2d(p=0.4568542356858235) (flatten4): Flatten() (linear5): Linear(in_features=28672, out_features=29, bias=True) (tanh6): Tanh() (dropout7): Dropout(p=0.3153003561482204) (linear8): Linear(in_features=29, out_features=130, bias=True) (selu9): SELU() (batchnorm1D10): BatchNorm1d(130, eps=1e-05, momentum=0.1, affine=True, track_running_stats=True) (linear11): Linear(in_features=130, out_features=10, bias=True) (tanh12): Tanh() )",1024,512,CrossEntropyLoss(),550,837105,"Adam ( Parameter Group 0 amsgrad: False betas: (0.9, 0.999) eps: 1e-08 initial_lr: 0.001 lr: 0.001 weight_decay: 0 )",512,"[0.8538796901702881, -0.012303873896598816, 0.009235436096787453, 0.01561025157570839, -0.0007297382107935846, -0.0777478739619255, -0.002105173422023654, -0.83311015367507
…
9665833, 0.04334098845720291, -0.03033772110939026, -0.12613900005817413]","[0.10757629573345184, 0.08130720257759094, 0.3863249123096466, 0.08689048886299133, 0.21717917919158936, 1.1892902851104736, 0.2886447012424469, 0.8598047494888306, 0.30910778045654297, 0.12359529733657837, 0.27278104424476624, 0.0939192995429039]","[1.486767292022705, 0.11694390326738358, 3.5206055641174316, 0.45899003744125366, 198.03793334960938, 6.307044982910156, 17.720998764038086, 13.623308181762695, 9.405410766601562, 1.488211989402771, 9.89214038848877, 0.488362580537796]",… 26,test_26,"Sequential( (batchnorm0): BatchNorm2d(3, eps=1e-05, momentum=0.1, affine=True, track_running_stats=True) (conv1): Conv2d(3, 29, kernel_size=(1, 1), stride=(1, 1)) (flatten2): Flatten() (linear3): Linear(in_features=29696, out_features=30, bias=True) (softmax4): Softmax() (softmax5): Softmax() (leaky_relu6): LeakyReLU(negative_slope=0.8636535944323436) (batchnorm1D7): BatchNorm1d(30, eps=1e-05, momentum=0.1, affine=True, track_running_stats=True) (relu8): ReLU() (softmax9): Softmax() (batchnorm1D10): BatchNorm1d(30, eps=1e-05, momentum=0.1, affine=True, track_running_stats=True) (dropout11): Dropout(p=0.9628780084904283) (relu12): ReLU() (linear13): Linear(in_features=30, out_features=234, bias=True) (softmax14): Softmax() (dropout15): Dropout(p=0.39428746838465256) (tanh16): Tanh() (dropout17): Dropout(p=0.22303608933659458) (leaky_relu18): LeakyReLU(negative_slope=0.4022635993649011) (linear19): Linear(in_features=234, out_features=10, bias=True) (softmax20): Softmax() (tanh21): Tanh() )",1024,512,CrossEntropyLoss(),811,900756,"Adam ( Parameter Group 0 amsgrad: False betas: (0.9, 0.999) eps: 1e-08 initial_lr: 0.001 lr: 0.001 weight_decay: 0 )",512,"[0.8517553210258484, -0.017583854496479034, -0.030956333503127098, -0.00441466411575675, -0.0009510816307738423, -0.02722047083079815, 0.398065090179
…
17505]","[0.26108208298683167, 0.03721218556165695, 0.5207230448722839, 0.14182308316230774, 0.1160719245672226, 0.0886450782418251, 0.3680873215198517, 0.3839947581291199, 0.25209298729896545, 0.08033321797847748, 1.057754635810852, 4.484914779663086, 5.42934513092041, 1.449512004852295]","[1.5207856893539429, 0.060803525149822235, 4.837611198425293, 0.7508336305618286, 109.55977630615234, 0.5001091361045837, 2.946664810180664, 2.069453001022339, 7.098901748657227, 0.49865227937698364, 128.2836151123047, 98.39387512207031, 290.3233947753906, 4.51458740234375]",… 27,test_27,"Sequential( (conv0): Conv2d(3, 30, kernel_size=(1, 1), stride=(1, 1)) (tanh1): Tanh() (batchnorm2): BatchNorm2d(30, eps=1e-05, momentum=0.1, affine=True, track_running_stats=True) (conv3): Conv2d(30, 26, kernel_size=(3, 3), stride=(1, 1)) (relu4): ReLU() (batchnorm5): BatchNorm2d(26, eps=1e-05, momentum=0.1, affine=True, track_running_stats=True) (flatten6): Flatten() (linear7): Linear(in_features=23400, out_features=31, bias=True) (selu8): SELU() (batchnorm1D9): BatchNorm1d(31, eps=1e-05, momentum=0.1, affine=True, track_running_stats=True) (linear10): Linear(in_features=31, out_features=10, bias=True) (relu11): ReLU() )",1024,512,CrossEntropyLoss(),550,733091,"Adam ( Parameter Group 0 amsgrad: False betas: (0.9, 0.999) eps: 1e-08 initial_lr: 0.001 lr: 0.001 weight_decay: 0 )",512,"[-0.01718442514538765, 0.02069387584924698, 0.5126695036888123, -0.030912674963474274, 0.005729910917580128, -0.15569864213466644, 0.6423172950744629, 0.0822371169924736, -0
…
","[0.443428635597229, 0.7841482758522034, 0.3232111930847168, 0.2025924026966095, 0.14904379844665527, 0.12525007128715515, 0.26938316226005554, 0.05670088157057762, 0.16444340348243713, 0.345468133687973, 0.34538379311561584, 0.16838900744915009, 0.8691983222961426, 0.1602274626493454]","[4.186472415924072, 4.2242889404296875, 3.3036949634552, 1.1040536165237427, 12.496036529541016, 1.011178970336914, 3.5413334369659424, 0.5061731934547424, 140.12745666503906, 1.8922449350357056, 12.871935844421387, 0.9908667802810669, 15.446084976196289, 0.5244654417037964]",… 28,test_28,"Sequential( (conv0): Conv2d(3, 28, kernel_size=(1, 1), stride=(1, 1)) (relu1): ReLU() (batchnorm2): BatchNorm2d(28, eps=1e-05, momentum=0.1, affine=True, track_running_stats=True) (flatten3): Flatten() (linear4): Linear(in_features=28672, out_features=28, bias=True) (selu5): SELU() (dropout6): Dropout(p=0.07423846914121812, inplace=False) (linear7): Linear(in_features=28, out_features=35, bias=True) (relu8): ReLU() (dropout9): Dropout(p=0.09830467936894949, inplace=False) (linear10): Linear(in_features=35, out_features=10, bias=True) (softmax11): Softmax(dim=None) (batchnorm1D12): BatchNorm1d(10, eps=1e-05, momentum=0.1, affine=True, track_running_stats=True) )",1024,512,CrossEntropyLoss(),438,804407,"Adam ( Parameter Group 0 amsgrad: False betas: (0.9, 0.999) eps: 1e-08 initial_lr: 0.001 lr: 0.001 weight_decay: 0 )",512,"[0.016325684264302254, -0.15804167091846466, 0.5176830291748047, 0.06312449276447296, -0.008340730331838131, -0.1578153818845749, -0.0019414926646277308, 0.3282138705
…
020246705040335655, 0.0437152199447155, 2.6331491470336914, 0.001400271081365645]","[0.3993402123451233, 0.34600523114204407, 0.346231609582901, 0.05064478516578674, 0.18366774916648865, 0.05940593406558037, 0.1407211273908615, 0.559255063533783, 0.13532958924770355, 0.34540265798568726, 0.2398878037929535, 0.2636374533176422]","[3.641238212585449, 1.9828742742538452, 3.2772765159606934, 0.42523378133773804, 164.73580932617188, 0.8903055787086487, 4.403439521789551, 3.795313835144043, 2.556382894515991, 1.0453885793685913, 8.35779094696045, 0.7909246683120728]",… 29,test_29,"Sequential( (conv0): Conv2d(3, 26, kernel_size=(1, 1), stride=(1, 1)) (tanh1): Tanh() (batchnorm2): BatchNorm2d(26, eps=1e-05, momentum=0.1, affine=True, track_running_stats=True) (conv3): Conv2d(26, 29, kernel_size=(11, 11), stride=(1, 1)) (selu4): SELU() (dropout5): Dropout2d(p=0.4969335679677621) (flatten6): Flatten() (linear7): Linear(in_features=14036, out_features=26, bias=True) (leaky_relu8): LeakyReLU(negative_slope=0.7754867561241378) (dropout9): Dropout(p=0.5976347335800805) (linear10): Linear(in_features=26, out_features=10, bias=True) (batchnorm1D11): BatchNorm1d(10, eps=1e-05, momentum=0.1, affine=True, track_running_stats=True) (batchnorm1D12): BatchNorm1d(10, eps=1e-05, momentum=0.1, affine=True, track_running_stats=True) )",1024,512,CrossEntropyLoss(),550,456691,"Adam ( Parameter Group 0 amsgrad: False betas: (0.9, 0.999) eps: 1e-08 initial_lr: 0.001 lr: 0.001 weight_decay: 0 )",512,"[-0.13233895599842072, -0.7825501561164856, 1.1974682807922363, 0.03325027599930763, 0.012529546394944191, -0.203669011592865, -0.0006604192894883454, -4.063961029052
…
723983765, 0.07579411566257477, 0.21986018121242523, 4.881931781768799, 0.25257739424705505, 0.08443745970726013, 0.7639391422271729, 0.021437950432300568, 0.5081730484962463, 0.38191887736320496]","[11.018648147583008, 10.167923927307129, 6.9145426750183105, 1.0177918672561646, 70.48037719726562, 1.1678200960159302, 132.81781005859375, 32.01939010620117, 4.06628942489624, 0.3183170557022095, 13.870305061340332, 0.07460775226354599, 14.7211332321167, 1.1457768678665161]",… 30,test_30,"Sequential( (tanh0): Tanh() (relu1): ReLU() (leaky_relu2): LeakyReLU(negative_slope=0.5818221693119792) (conv3): Conv2d(3, 32, kernel_size=(1, 1), stride=(1, 1)) (flatten4): Flatten() (linear5): Linear(in_features=32768, out_features=32, bias=True) (dropout6): Dropout(p=0.9628742261371153) (dropout7): Dropout(p=0.5457476325131082) (tanh8): Tanh() (batchnorm1D9): BatchNorm1d(32, eps=1e-05, momentum=0.1, affine=True, track_running_stats=True) (linear10): Linear(in_features=32, out_features=10, bias=True) )",1024,512,CrossEntropyLoss(),532,1049130,"Adam ( Parameter Group 0 amsgrad: False betas: (0.9, 0.999) eps: 1e-08 initial_lr: 0.001 lr: 0.001 weight_decay: 0 )",512,"[-0.014997492544353008, 0.0736660584807396, -0.00015903169696684927, -0.001823405735194683, -0.002635638229548931, 0.00014731002738699317, 0.0033392261248081923, 0.0045171924866735935]","[0.31692391633987427, 0.3130023181438446, 0.009098708629608154, 0.009494387544691563, 0.017432846128940582, 0.0017342464998364449, 0.04222782701253891, 0.005962330847978592]","[3.0924854278564453, 1.7918533086776733, 9.318495750427246, 0.05385943874716759, 0.09820040315389633, 0.009691767394542694, 0.756574809551239, 0.022890932857990265]",… 31,test_31,"Sequential( (batchnorm0): BatchNorm2d(3, eps=1e-05, momentum=0.1, affine=True, track_running_stats=True) (conv1): Conv2d(3, 29, kernel_size=(1, 1), stride=(1, 1)) (tanh2): Tanh() (maxpool3): MaxPool2d(kernel_size=3, stride=3, padding=0, dilation=1, ceil_mode=False) (flatten4): Flatten() (linear5): Linear(in_features=2900, out_features=27, bias=True) (relu6): ReLU() (batchnorm1D7): BatchNorm1d(27, eps=1e-05, momentum=0.1, affine=True, track_running_stats=True) (linear8): Linear(in_features=27, out_features=174, bias=True) (tanh9): Tanh() (dropout10): Dropout(p=0.4194641812110145) (linear11): Linear(in_features=174, out_features=10, bias=True) )",1024,512,CrossEntropyLoss(),439,85125,"Adam ( Parameter Group 0 amsgrad: False betas: (0.9, 0.999) eps: 1e-08 initial_lr: 0.001 lr: 0.001 weight_decay: 0 )",512,"[1.912886142730713, 0.28789278864860535, -0.030748164281249046, -0.10858575999736786, -0.0009880048455670476, 0.10046335309743881, 1.4821851253509521, 0.051465731114149094, -0.0033088186755776405, -0.008023426868021488, 0.0002064718573819846, -0.036608096212148666]","[0.11340092122554779, 0.10444434732198715, 0.5383806228637695, 0.9058408737182617, 0.17986656725406647, 0.6332556009292603, 0.40581169724464417, 0.28343507647514343, 0.4576335549354553, 0.2920836806297302, 0.10150591284036636, 0.5891343951225281]","[3.3170948028564453, 0.5200615525245667, 5.000967025756836, 4.82879638671875, 50.33094787597656, 3.270907163619995, 7.97479248046875, 1.469774603843689, 31.364580154418945, 3.8432183265686035, 4.23293924331665, 1.7711902856826782]",… 32,test_32,"Sequential( (batchnorm0): BatchNorm2d(3, eps=1e-05, momentum=0.1, affine=True, track_running_stats=True) (conv1): Conv2d(3, 26, kernel_size=(1, 1), stride=(1, 1)) (relu2): ReLU() (dropout3): Dropout2d(p=0.9482956212010227, inplace=False) (flatten4): Flatten() (linear5): Linear(in_features=26624, out_features=26, bias=True) (relu6): ReLU() (dropout7): Dropout(p=0.834361784659875, inplace=False) (linear8): Linear(in_features=26, out_features=200, bias=True) (leaky_relu9): LeakyReLU(negative_slope=0.8815626517907212) (batchnorm1D10): BatchNorm1d(200, eps=1e-05, momentum=0.1, affine=True, track_running_stats=True) (linear11): Linear(in_features=200, out_features=131, bias=True) (tanh12): Tanh() (batchnorm1D13): BatchNorm1d(131, eps=1e-05, momentum=0.1, affine=True, track_running_stats=True) (linear14): Linear(in_features=131, out_features=10, bias=True) )",1024,512,CrossEntropyLoss(),547,726073,"Adam ( Parameter Group 0 amsgrad: False betas: (0.9, 0.999) eps: 1e-08 initial_lr: 0.001 lr: 0.001 weight_decay: 0 )",512,"[… ","[… ","[… ",… 33,test_33,"Sequential( (batchnorm0): BatchNorm2d(3, eps=1e-05, momentum=0.1, affine=True, track_running_stats=True) (conv1): Conv2d(3, 28, kernel_size=(1, 1), stride=(1, 1)) (tanh2): Tanh() (maxpool3): MaxPool2d(kernel_size=1, stride=1, padding=0, dilation=1, ceil_mode=False) (flatten4): Flatten() (linear5): Linear(in_features=28672, out_features=27, bias=True) (relu6): ReLU() (batchnorm1D7): BatchNorm1d(27, eps=1e-05, momentum=0.1, affine=True, track_running_stats=True) (linear8): Linear(in_features=27, out_features=76, bias=True) (relu9): ReLU() (dropout10): Dropout(p=0.12217185530524388) (linear11): Linear(in_features=76, out_features=10, bias=True) (softmax12): Softmax() (batchnorm1D13): BatchNorm1d(10, eps=1e-05, momentum=0.1, affine=True, track_running_stats=True) )",1024,512,CrossEntropyLoss(),550,777261,"Adam ( Parameter Group 0 amsgrad: False betas: (0.9, 0.999) eps: 1e-08 initial_lr: 0.001 lr: 0.001 weight_decay: 0 )",512,"[1.8374336957931519, 0.1428241729736328, -0.1364363729953766, 0.2535690367221832, -0.00014078662206884474, 0.10030437260866165, 0.8352426886558533, 0.0491049699485302
…
4985, -0.20165669918060303, 4.073760509490967, 0.02153589203953743]","[0.32988303899765015, 0.34589552879333496, 0.170081228017807, 0.17462171614170074, 0.21945294737815857, 0.11425886303186417, 0.6383377909660339, 0.2503547966480255]","[3.0672483444213867, 2.4748315811157227, 149.44857788085938, 0.915394127368927, 3.531796455383301, 0.723982036113739, 13.023920059204102, 0.7541455626487732]",… 35,test_35,"Sequential( (leaky_relu0): LeakyReLU(negative_slope=0.8788743856213641) (softmax1): Softmax() (dropout2): Dropout2d(p=0.3316247290531975) (softmax3): Softmax() (flatten4): Flatten() (linear5): Linear(in_features=3072, out_features=32, bias=True) (softmax6): Softmax() (batchnorm1D7): BatchNorm1d(32, eps=1e-05, momentum=0.1, affine=True, track_running_stats=True) (softmax8): Softmax() (linear9): Linear(in_features=32, out_features=10, bias=True) (leaky_relu10): LeakyReLU(negative_slope=0.4578302646913446) (dropout11): Dropout(p=0.3688752708039993) )",1024,512,CrossEntropyLoss(),803,98730,"Adam ( Parameter Group 0 amsgrad: False betas: (0.9, 0.999) eps: 1e-08 initial_lr: 0.001 lr: 0.001 weight_decay: 0 )",512,"[-0.002484897617250681, 0.002587869530543685, 1.1339176893234253, -1.1712844371795654, 0.9413203597068787, -0.09956379979848862]","[0.11435066163539886, 0.026950707659125328, 0.6388332843780518, 2.88979172706604, 2.636491060256958, 0.06422202289104462]","[35.861183166503906, 0.15076757967472076, 7.334573268890381, 17.400541305541992, 50.00943374633789, 0.36912015080451965]",… 36,test_36,"Sequential( (dropout0): Dropout2d(p=0.3816127107850553) (maxpool1): MaxPool2d(kernel_size=1, stride=1, padding=0, dilation=1, ceil_mode=False) (tanh2): Tanh() (flatten3): Flatten() (linear4): Linear(in_features=3072, out_features=27, bias=True) (softmax5): Softmax() (linear6): Linear(in_features=27, out_features=167, bias=True) (linear7): Linear(in_features=167, out_features=207, bias=True) (tanh8): Tanh() (batchnorm1D9): BatchNorm1d(207, eps=1e-05, momentum=0.1, affine=True, track_running_stats=True) (dropout10): Dropout(p=0.12606593395648014) (linear11): Linear(in_features=207, out_features=10, bias=True) (softmax12): Softmax() )",1024,512,CrossEntropyLoss(),759,124917,"Adam ( Parameter Group 0 amsgrad: False betas: (0.9, 0.999) eps: 1e-08 initial_lr: 0.001 lr: 0.001 weight_decay: 0 )",512,"[-0.0012595538282766938, -0.09412272274494171, -0.00419356906786561, -0.017000751569867134, -0.000615894328802824, 0.0009718333021737635, 0.6821970343589783, 0.003240154590457678, -0.0011715877335518599, 0.004073175135999918]","[0.25061994791030884, 0.7348021864891052, 0.30689170956611633, 0.23256443440914154, 0.2745259404182434, 0.43283936381340027, 0.19982849061489105, 0.2381255030632019, 0.2586100995540619, 0.07953128218650818]","[72.17902374267578, 3.7785561084747314, 20.607135772705078, 3.004426956176758, 51.04127883911133, 6.212429046630859, 10.225564956665039, 3.4180617332458496, 11.763327598571777, 0.2389412671327591]",… 37,test_37,"Sequential( (conv0): Conv2d(3, 26, kernel_size=(1, 1), stride=(1, 1)) (relu1): ReLU() (batchnorm2): BatchNorm2d(26, eps=1e-05, momentum=0.1, affine=True, track_running_stats=True) (flatten3): Flatten() (linear4): Linear(in_features=26624, out_features=28, bias=True) (selu5): SELU() (dropout6): Dropout(p=0.8979642416102414, inplace=False) (linear7): Linear(in_features=28, out_features=216, bias=True) (selu8): SELU() (dropout9): Dropout(p=0.804403506613621, inplace=False) (linear10): Linear(in_features=216, out_features=10, bias=True) (softmax11): Softmax(dim=None) )",1024,512,CrossEntropyLoss(),438,754090,"Adam ( Parameter Group 0 amsgrad: False betas: (0.9, 0.999) eps: 1e-08 initial_lr: 0.001 lr: 0.001 weight_decay: 0 )",512,"[-0.02997736446559429, -0.022091733291745186, 0.9432672262191772, -0.04094132408499718, 0.009260041639208794, -0.13964569568634033, 0.015379534102976322, 0.0002328798291273415, -0.0024892939254641533, -0.012084245681762695]","[0.3879522383213043, 0.3918241858482361, 0.1845845878124237, 0.13587194681167603, 0.16315104067325592, 0.15664437413215637, 0.17228367924690247, 0.06407084316015244, 0.14545652270317078, 0.36976006627082825]","[3.414546251296997, 1.9623568058013916, 4.897485256195068, 0.7107113003730774, 141.09239196777344, 1.0993348360061646, 13.450484275817871, 0.939469039440155, 6.759632587432861, 1.1099382638931274]",… 38,test_38,"Sequential( (batchnorm0): BatchNorm2d(3, eps=1e-05, momentum=0.1, affine=True, track_running_stats=True) (conv1): Conv2d(3, 26, kernel_size=(1, 1), stride=(1, 1)) (tanh2): Tanh() (dropout3): Dropout2d(p=0.7378377036752388, inplace=False) (conv4): Conv2d(26, 31, kernel_size=(13, 13), stride=(1, 1)) (selu5): SELU() (maxpool6): MaxPool2d(kernel_size=13, stride=13, padding=0, dilation=1, ceil_mode=False) (flatten7): Flatten() (linear8): Linear(in_features=31, out_features=31, bias=True) (leaky_relu9): LeakyReLU(negative_slope=0.19624457856791466) (dropout10): Dropout(p=0.7789264180925245, inplace=False) (linear11): Linear(in_features=31, out_features=10, bias=True) (softmax12): Softmax(dim=None) )",1024,512,CrossEntropyLoss(),404,137667,"Adam ( Parameter Group 0 amsgrad: False betas: (0.9, 0.999) eps: 1e-08 initial_lr: 0.001 lr: 0.001 weight_decay: 0 )",512,"[1.114313006401062, 0.003892759559676051, 0.023625073954463005, -0.042431291192770004, 0.005743243265897036, -0.646446943283081, -0.01474058162420988, 0.19686074554920197, -0.042450301349163055, 0.026837218552827835]","[0.08966204524040222, 0.09658027440309525, 0.42831218242645264, 0.12988556921482086, 0.18604451417922974, 0.907844066619873, 0.21876248717308044, 0.4323054552078247, 0.21353571116924286, 1.2394160032272339]","[1.9342073202133179, 0.1367514431476593, 3.764211654663086, 0.6845197081565857, 68.69623565673828, 6.13841438293457, 6.793494701385498, 2.609217882156372, 3.8273041248321533, 3.7192161083221436]",… 39,test_39,"Sequential( (conv0): Conv2d(3, 32, kernel_size=(1, 1), stride=(1, 1)) (softmax1): Softmax() (dropout2): Dropout2d(p=0.2437750015186797) (conv3): Conv2d(32, 29, kernel_size=(7, 7), stride=(1, 1)) (batchnorm4): BatchNorm2d(29, eps=1e-05, momentum=0.1, affine=True, track_running_stats=True) (flatten5): Flatten() (linear6): Linear(in_features=19604, out_features=26, bias=True) (batchnorm1D7): BatchNorm1d(26, eps=1e-05, momentum=0.1, affine=True, track_running_stats=True) (relu8): ReLU() (dropout9): Dropout(p=0.013793945075236458) (linear10): Linear(in_features=26, out_features=10, bias=True) (tanh11): Tanh() )",1024,512,CrossEntropyLoss(),467,555739,"Adam ( Parameter Group 0 amsgrad: False betas: (0.9, 0.999) eps: 1e-08 initial_lr: 0.001 lr: 0.001 weight_decay: 0 )",512,"[0.02213643118739128, 0.014943547546863556, 0.005717714782804251, -0.0015968906227499247, 0.5327826142311096, -0.012746586464345455, -0.0003225222462788224, 0.00123247283045
…
04485065583139658, 0.3318161070346832, 0.47821125388145447, 1.2990103960037231, 1.3606914281845093]","[15.724315643310547, 4.700070858001709, 44.40642547607422, 0.4517958462238312, 3.866881847381592, 0.34426599740982056, 140.98214721679688, 0.02328924834728241, 17.179460525512695, 3.9269113540649414, 22.286977767944336, 4.166816234588623]",… 40,test_40,"Sequential( (leaky_relu0): LeakyReLU(negative_slope=0.45245261508704626) (maxpool1): MaxPool2d(kernel_size=1, stride=1, padding=0, dilation=1, ceil_mode=False) (selu2): SELU() (relu3): ReLU() (softmax4): Softmax() (flatten5): Flatten() (linear6): Linear(in_features=3072, out_features=28, bias=True) (selu7): SELU() (leaky_relu8): LeakyReLU(negative_slope=0.2655156367667578) (tanh9): Tanh() (batchnorm1D10): BatchNorm1d(28, eps=1e-05, momentum=0.1, affine=True, track_running_stats=True) (linear11): Linear(in_features=28, out_features=207, bias=True) (linear12): Linear(in_features=207, out_features=211, bias=True) (softmax13): Softmax() (linear14): Linear(in_features=211, out_features=10, bias=True) (softmax15): Softmax() (relu16): ReLU() )",1024,512,CrossEntropyLoss(),761,138111,"Adam ( Parameter Group 0 amsgrad: False betas: (0.9, 0.999) eps: 1e-08 initial_lr: 0.001 lr: 0.001 weight_decay: 0 )",512,"[0.0057943882420659065, 0.008252925239503384, 0.7633160352706909, 0.011208037845790386, 0.0005466855363920331, 0.01821914128959179, -0.04378587007522583, -2.2468578815460205, -0.2615850865840912, -0.9876109957695007]","[0.06895074993371964, 0.03254370018839836, 0.3105911612510681, 0.032711610198020935, 0.15899723768234253, 0.11071126908063889, 0.45748019218444824, 0.45965078473091125, 2.2941718101501465, 2.859929323196411]","[20.293373107910156, 0.1746499091386795, 4.349579811096191, 0.1800241321325302, 12.103718757629395, 1.6104813814163208, 96.04481506347656, 33.31027603149414, 106.0401840209961, 9.130526542663574]",… 41,test_41,"Sequential( (flatten0): Flatten() (linear1): Linear(in_features=3072, out_features=26, bias=True) (relu2): ReLU() (dropout3): Dropout(p=0.9236299369875484, inplace=False) (linear4): Linear(in_features=26, out_features=182, bias=True) (tanh5): Tanh() (dropout6): Dropout(p=0.2895908978287879, inplace=False) (linear7): Linear(in_features=182, out_features=51, bias=True) (leaky_relu8): LeakyReLU(negative_slope=0.7597330120142808) (dropout9): Dropout(p=0.37608773847690835, inplace=False) (linear10): Linear(in_features=51, out_features=10, bias=True) )",1024,512,CrossEntropyLoss(),404,94665,"Adam ( Parameter Group 0 amsgrad: False betas: (0.9, 0.999) eps: 1e-08 initial_lr: 0.001 lr: 0.001 weight_decay: 0 )",512,"[0.0002848027506843209, -1.731653094291687, 0.0009872069349512458, 0.009564772248268127, -0.000830707314889878, 0.09409970045089722, 0.001995033584535122, 0.018478846177458763]","[0.16515913605690002, 2.0735087394714355, 0.22079892456531525, 0.6663045287132263, 0.054802484810352325, 0.4852840304374695, 0.03383372351527214, 0.0781911090016365]","[46.67644500732422, 13.61800765991211, 15.187202453613281, 8.965140342712402, 5.280165672302246, 3.496659278869629, 0.7646520137786865, 0.24174225330352783]",… 42,test_42,"Sequential( (conv0): Conv2d(3, 31, kernel_size=(1, 1), stride=(1, 1)) (conv1): Conv2d(31, 31, kernel_size=(3, 3), stride=(1, 1)) (relu2): ReLU() (dropout3): Dropout2d(p=0.7996663843367223) (flatten4): Flatten() (linear5): Linear(in_features=27900, out_features=27, bias=True) (linear6): Linear(in_features=27, out_features=97, bias=True) (softmax7): Softmax() (tanh8): Tanh() (softmax9): Softmax() (dropout10): Dropout(p=0.8956315839509359) (softmax11): Softmax() (batchnorm1D12): BatchNorm1d(97, eps=1e-05, momentum=0.1, affine=True, track_running_stats=True) (batchnorm1D13): BatchNorm1d(97, eps=1e-05, momentum=0.1, affine=True, track_running_stats=True) (batchnorm1D14): BatchNorm1d(97, eps=1e-05, momentum=0.1, affine=True, track_running_stats=True) (softmax15): Softmax() (dropout16): Dropout(p=0.4066848033079079) (batchnorm1D17): BatchNorm1d(97, eps=1e-05, momentum=0.1, affine=True, track_running_stats=True) (linear18): Linear(in_features=97, out_features=10, bias=True) )",1024,512,CrossEntropyLoss(),501,766603,"Adam ( Parameter Group 0 amsgrad: False betas: (0.9, 0.999) eps: 1e-08 initial_lr: 0.001 lr: 0.001 weight_decay: 0 )",512,"[… ","[… ","[… ",… 43,test_43,"Sequential( (batchnorm0): BatchNorm2d(3, eps=1e-05, momentum=0.1, affine=True, track_running_stats=True) (relu1): ReLU() (tanh2): Tanh() (batchnorm3): BatchNorm2d(3, eps=1e-05, momentum=0.1, affine=True, track_running_stats=True) (tanh4): Tanh() (relu5): ReLU() (maxpool6): MaxPool2d(kernel_size=1, stride=1, padding=0, dilation=1, ceil_mode=False) (dropout7): Dropout2d(p=0.38269963554923947) (leaky_relu8): LeakyReLU(negative_slope=0.2423396749198814) (dropout9): Dropout2d(p=0.38185649785770337) (dropout10): Dropout2d(p=0.903134197351718) (selu11): SELU() (tanh12): Tanh() (flatten13): Flatten() (linear14): Linear(in_features=3072, out_features=27, bias=True) (linear15): Linear(in_features=27, out_features=10, bias=True) (dropout16): Dropout(p=0.7534048949996277) )",1024,512,CrossEntropyLoss(),583,83263,"Adam ( Parameter Group 0 amsgrad: False betas: (0.9, 0.999) eps: 1e-08 initial_lr: 0.001 lr: 0.001 weight_decay: 0 )",512,"[0.4620671272277832, 0.24512086808681488, 0.26302146911621094, -0.0817703902721405, 0.0004624249704647809, 0.009724074974656105, -0.0012289519654586911, -0.0049034422263503075]","[0.06030531972646713, 0.45187893509864807, 0.17686116695404053, 0.04042581096291542, 0.10859116911888123, 0.052643854171037674, 0.012603682465851307, 0.004891081713140011]","[0.8048550486564636, 0.7672299146652222, 0.5197120308876038, 0.15273401141166687, 31.274351119995117, 0.2731461226940155, 0.20769977569580078, 0.021348103880882263]",… 44,test_44,"Sequential( (batchnorm0): BatchNorm2d(3, eps=1e-05, momentum=0.1, affine=True, track_running_stats=True) (flatten1): Flatten() (linear2): Linear(in_features=3072, out_features=31, bias=True) (selu3): SELU() (batchnorm1D4): BatchNorm1d(31, eps=1e-05, momentum=0.1, affine=True, track_running_stats=True) (linear5): Linear(in_features=31, out_features=170, bias=True) (leaky_relu6): LeakyReLU(negative_slope=0.3888458415544884) (dropout7): Dropout(p=0.014051219174281204, inplace=False) (linear8): Linear(in_features=170, out_features=62, bias=True) (selu9): SELU() (dropout10): Dropout(p=0.09981771972298481, inplace=False) (linear11): Linear(in_features=62, out_features=10, bias=True) )",1024,512,CrossEntropyLoss(),404,112003,"Adam ( Parameter Group 0 amsgrad: False betas: (0.9, 0.999) eps: 1e-08 initial_lr: 0.001 lr: 0.001 weight_decay: 0 )",512,"[1.3522160053253174, 0.1374223530292511, -0.00016525783576071262, -0.5678420066833496, 1.54544997215271, 0.15880201756954193, -0.021087270230054855, -0.33595505356788635, -0.020385440438985825, -0.021578436717391014, 0.0017646513879299164, -0.03826909512281418]","[0.13148167729377747, 0.2047639638185501, 0.16345946490764618, 0.7895820140838623, 0.10165673494338989, 0.09498610347509384, 0.2529461681842804, 0.19394779205322266, 0.25473079085350037, 0.1777917444705963, 0.13657738268375397, 0.24156779050827026]","[2.3494763374328613, 0.37484830617904663, 50.44282913208008, 5.357142448425293, 8.622696876525879, 1.0258806943893433, 18.424531936645508, 5.054131507873535, 26.23418426513672, 1.3989542722702026, 3.398289918899536, 0.7347381114959717]",… 45,test_45,"Sequential( (batchnorm0): BatchNorm2d(3, eps=1e-05, momentum=0.1, affine=True, track_running_stats=True) (conv1): Conv2d(3, 29, kernel_size=(1, 1), stride=(1, 1)) (tanh2): Tanh() (batchnorm3): BatchNorm2d(29, eps=1e-05, momentum=0.1, affine=True, track_running_stats=True) (conv4): Conv2d(29, 31, kernel_size=(3, 3), stride=(1, 1)) (selu5): SELU() (batchnorm6): BatchNorm2d(31, eps=1e-05, momentum=0.1, affine=True, track_running_stats=True) (flatten7): Flatten() (linear8): Linear(in_features=27900, out_features=26, bias=True) (selu9): SELU() (dropout10): Dropout(p=0.2881950053778899, inplace=False) (linear11): Linear(in_features=26, out_features=10, bias=True) )",1024,512,CrossEntropyLoss(),438,734060,"Adam ( Parameter Group 0 amsgrad: False betas: (0.9, 0.999) eps: 1e-08 initial_lr: 0.001 lr: 0.001 weight_decay: 0 )",512,"[1.3035227060317993, 0.20807132124900818, -0.009022657759487629, -0.128851056098938, 1.494718074798584, -0.09749055653810501, 0.005950927734375, -0.38214823603630066, 0.4796660542488098, 0.0
…
 0.04247189313173294, 0.17668238282203674, 0.20035922527313232, 0.25260505080223083, 0.6450968980789185]","[2.2587473392486572, 0.6756889224052429, 4.8946213722229, 4.546671390533447, 8.20290756225586, 3.6090710163116455, 18.413843154907227, 2.694896936416626, 3.0985167026519775, 0.29866454005241394, 150.50747680664062, 1.8241496086120605, 4.37197732925415, 1.936927318572998]",… 46,test_46,"Sequential( (selu0): SELU() (maxpool1): MaxPool2d(kernel_size=1, stride=1, padding=0, dilation=1, ceil_mode=False) (dropout2): Dropout2d(p=0.02132748370685844) (selu3): SELU() (flatten4): Flatten() (linear5): Linear(in_features=3072, out_features=30, bias=True) (leaky_relu6): LeakyReLU(negative_slope=0.5082118945492298) (batchnorm1D7): BatchNorm1d(30, eps=1e-05, momentum=0.1, affine=True, track_running_stats=True) (softmax8): Softmax() (softmax9): Softmax() (linear10): Linear(in_features=30, out_features=10, bias=True) (batchnorm1D11): BatchNorm1d(10, eps=1e-05, momentum=0.1, affine=True, track_running_stats=True) )",1024,512,CrossEntropyLoss(),741,92580,"Adam ( Parameter Group 0 amsgrad: False betas: (0.9, 0.999) eps: 1e-08 initial_lr: 0.001 lr: 0.001 weight_decay: 0 )",512,"[-0.0015258562052622437, -1.0919595956802368, 2.037687301635742, -0.07442238181829453, -0.17145885527133942, 0.007135685067623854, 4.927468776702881, -0.0011483848793432117]","[0.23541352152824402, 1.9141879081726074, 0.29532375931739807, 0.6066643595695496, 0.7708924412727356, 0.24068793654441833, 0.4495915174484253, 0.5357162952423096]","[71.4676284790039, 11.917659759521484, 11.273612976074219, 3.2923200130462646, 13.656782150268555, 0.7224162817001343, 15.640290260314941, 1.607153058052063]",… 47,test_47,"Sequential( (flatten0): Flatten() (linear1): Linear(in_features=3072, out_features=30, bias=True) (selu2): SELU() (batchnorm1D3): BatchNorm1d(30, eps=1e-05, momentum=0.1, affine=True, track_running_stats=True) (linear4): Linear(in_features=30, out_features=176, bias=True) (selu5): SELU() (dropout6): Dropout(p=0.1490638927074761, inplace=False) (linear7): Linear(in_features=176, out_features=50, bias=True) (leaky_relu8): LeakyReLU(negative_slope=0.5340658111970648) (batchnorm1D9): BatchNorm1d(50, eps=1e-05, momentum=0.1, affine=True, track_running_stats=True) (linear10): Linear(in_features=50, out_features=10, bias=True) (softmax11): Softmax(dim=None) )",1024,512,CrossEntropyLoss(),438,107166,"Adam ( Parameter Group 0 amsgrad: False betas: (0.9, 0.999) eps: 1e-08 initial_lr: 0.001 lr: 0.001 weight_decay: 0 )",512,"[0.00018867806647904217, -0.7725995779037476, 1.2928444147109985, 0.19078682363033295, -0.0372772216796875, -0.1254441887140274, -0.0007860621553845704, 0.1329
…
18626153469085693, 0.914125919342041, 0.0907546877861023, 0.08868550509214401, 0.2883058488368988, 0.3127250671386719, 0.1995680183172226, 0.6517838835716248, 0.3699656128883362, 0.3010689616203308, 0.6397567987442017, 0.36602380871772766]","[56.544742584228516, 6.491568565368652, 7.09804630279541, 1.148945927619934, 21.121763229370117, 4.459153175354004, 18.7202205657959, 4.658318996429443, 21.187929153442383, 2.1849350929260254, 14.364023208618164, 1.1011053323745728]",… 48,test_48,"Sequential( (maxpool0): MaxPool2d(kernel_size=1, stride=1, padding=0, dilation=1, ceil_mode=False) (batchnorm1): BatchNorm2d(3, eps=1e-05, momentum=0.1, affine=True, track_running_stats=True) (tanh2): Tanh() (leaky_relu3): LeakyReLU(negative_slope=0.9104791181884749) (flatten4): Flatten() (linear5): Linear(in_features=3072, out_features=31, bias=True) (linear6): Linear(in_features=31, out_features=10, bias=True) )",1024,512,CrossEntropyLoss(),1035,95589,"Adam ( Parameter Group 0 amsgrad: False betas: (0.9, 0.999) eps: 1e-08 initial_lr: 0.001 lr: 0.001 weight_decay: 0 )",512,"[1.0351014137268066, 0.09620939940214157, 0.00013262059655971825, 0.057399291545152664, 0.008138114586472511, -0.01649956777691841]","[0.13939864933490753, 0.5628691911697388, 0.24129264056682587, 0.9990019202232361, 0.08894003182649612, 0.8202341794967651]","[1.8036541938781738, 0.8132725358009338, 74.46175384521484, 5.481083393096924, 1.5699753761291504, 2.4612555503845215]",… 49,test_49,"Sequential( (dropout0): Dropout2d(p=0.6198792888887296) (flatten1): Flatten() (linear2): Linear(in_features=3072, out_features=29, bias=True) (batchnorm1D3): BatchNorm1d(29, eps=1e-05, momentum=0.1, affine=True, track_running_stats=True) (leaky_relu4): LeakyReLU(negative_slope=0.2774633213742086) (batchnorm1D5): BatchNorm1d(29, eps=1e-05, momentum=0.1, affine=True, track_running_stats=True) (tanh6): Tanh() (linear7): Linear(in_features=29, out_features=10, bias=True) )",1024,512,CrossEntropyLoss(),1043,89533,"Adam ( Parameter Group 0 amsgrad: False betas: (0.9, 0.999) eps: 1e-08 initial_lr: 0.001 lr: 0.001 weight_decay: 0 )",512,"[-0.00020783668151125312, -2.438575029373169e-05, 1.0470037460327148, 0.1105131283402443, 2.370345115661621, -0.9795562028884888, -0.014160403050482273, -0.0068315984681248665]","[0.2951182425022125, 0.010051370598375797, 0.7139971852302551, 0.10815843939781189, 1.895015001296997, 0.41645196080207825, 0.7429131865501404, 1.3575350046157837]","[88.08527374267578, 0.05318702012300491, 6.787080764770508, 0.8256708383560181, 16.23230743408203, 5.716859340667725, 12.631826400756836, 4.072662353515625]",… 50,test_50,"Sequential( (conv0): Conv2d(3, 26, kernel_size=(1, 1), stride=(1, 1)) (softmax1): Softmax() (conv2): Conv2d(26, 26, kernel_size=(5, 5), stride=(1, 1)) (leaky_relu3): LeakyReLU(negative_slope=0.5626340059031836) (conv4): Conv2d(26, 30, kernel_size=(5, 5), stride=(1, 1)) (leaky_relu5): LeakyReLU(negative_slope=0.3874944888549269) (tanh6): Tanh() (flatten7): Flatten() (linear8): Linear(in_features=17280, out_features=26, bias=True) (selu9): SELU() (linear10): Linear(in_features=26, out_features=10, bias=True) (dropout11): Dropout(p=0.8194896963013094) )",1024,512,CrossEntropyLoss(),520,486136,"Adam ( Parameter Group 0 amsgrad: False betas: (0.9, 0.999) eps: 1e-08 initial_lr: 0.001 lr: 0.001 weight_decay: 0 )",512,"[-0.01184933166950941, 0.051868587732315063, -0.0009197074105031788, -0.0011085759615525603, -0.008991601876914501, -0.2044377624988556, 7.652616477571428e-05, -0.21912062168121338, -0.009037434123456478, -0.5390973687171936]","[0.5219438076019287, 0.31248700618743896, 0.10881105065345764, 0.01971261389553547, 0.14735408127307892, 0.09344445914030075, 0.2049245536327362, 0.2323831021785736, 0.14870792627334595, 0.11837455630302429]","[4.581233501434326, 1.584661841392517, 14.145523071289062, 0.09872502088546753, 20.6146240234375, 1.2276270389556885, 137.35739135742188, 1.6119576692581177, 2.397660255432129, 1.7413709163665771]",… 51,test_51,"Sequential( (batchnorm0): BatchNorm2d(3, eps=1e-05, momentum=0.1, affine=True, track_running_stats=True) (conv1): Conv2d(3, 26, kernel_size=(1, 1), stride=(1, 1)) (tanh2): Tanh() (batchnorm3): BatchNorm2d(26, eps=1e-05, momentum=0.1, affine=True, track_running_stats=True) (conv4): Conv2d(26, 26, kernel_size=(5, 5), stride=(1, 1)) (leaky_relu5): LeakyReLU(negative_slope=0.36965268957840314) (dropout6): Dropout2d(p=0.5194137091428369, inplace=False) (flatten7): Flatten() (linear8): Linear(in_features=20384, out_features=29, bias=True) (tanh9): Tanh() (dropout10): Dropout(p=0.9521819360765885, inplace=False) (linear11): Linear(in_features=29, out_features=10, bias=True) (leaky_relu12): LeakyReLU(negative_slope=0.08868911075669139) (dropout13): Dropout(p=0.6167156697357862, inplace=False) )",1024,512,CrossEntropyLoss(),438,608553,"Adam ( Parameter Group 0 amsgrad: False betas: (0.9, 0.999) eps: 1e-08 initial_lr: 0.001 lr: 0.001 weight_decay: 0 )",512,"[0.9843735098838806, 0.19273994863033295, -0.006954519543796778, -0.00
…
812472582, 0.01850077696144581, -0.0005271011614240706, -0.3202095925807953]","[0.198293074965477, 0.15481290221214294, 0.3783520758152008, 0.3829868733882904, 0.13419128954410553, 0.2574554979801178, 0.14955365657806396, 0.15980111062526703, 0.1106342300772667, 0.12646271288394928, 0.010329460725188255, 0.16535025835037231]","[1.7278928756713867, 0.3992243707180023, 3.32059383392334, 1.9151252508163452, 4.568694114685059, 1.3244311809539795, 19.459108352661133, 0.9041375517845154, 85.10478210449219, 0.6765537858009338, 0.17583011090755463, 1.1275674104690552]",… 52,test_52,"Sequential( (conv0): Conv2d(3, 28, kernel_size=(1, 1), stride=(1, 1)) (tanh1): Tanh() (dropout2): Dropout2d(p=0.9924890271397994, inplace=False) (flatten3): Flatten() (linear4): Linear(in_features=28672, out_features=26, bias=True) (selu5): SELU() (dropout6): Dropout(p=0.35893966266664756, inplace=False) (linear7): Linear(in_features=26, out_features=44, bias=True) (selu8): SELU() (dropout9): Dropout(p=0.41004700557842855, inplace=False) (linear10): Linear(in_features=44, out_features=10, bias=True) )",1024,512,CrossEntropyLoss(),404,747248,"Adam ( Parameter Group 0 amsgrad: False betas: (0.9, 0.999) eps: 1e-08 initial_lr: 0.001 lr: 0.001 weight_decay: 0 )",512,"[0.0028698579408228397, -0.0041834707371890545, 0.0008201967575587332, 0.00550739886239171, -0.06092718988656998, 0.06765592843294144, 0.010207063518464565, -0.006211878731846809]","[0.06371819972991943, 0.0186314694583416, 0.1237795278429985, 0.04251875355839729, 0.1501672863960266, 0.07713962346315384, 0.029828695580363274, 0.022715488448739052]","[0.5810959339141846, 0.09931059181690216, 106.8744125366211, 0.2144405096769333, 5.479193687438965, 0.6762208938598633, 0.660637378692627, 0.07092118263244629]",… 53,test_53,"Sequential( (conv0): Conv2d(3, 29, kernel_size=(1, 1), stride=(1, 1)) (relu1): ReLU() (batchnorm2): BatchNorm2d(29, eps=1e-05, momentum=0.1, affine=True, track_running_stats=True) (conv3): Conv2d(29, 31, kernel_size=(9, 9), stride=(1, 1)) (leaky_relu4): LeakyReLU(negative_slope=0.33248998546469466) (dropout5): Dropout2d(p=0.436357770607014) (flatten6): Flatten() (linear7): Linear(in_features=17856, out_features=31, bias=True) (tanh8): Tanh() (dropout9): Dropout(p=0.7921294689345781) (linear10): Linear(in_features=31, out_features=10, bias=True) )",1024,512,CrossEntropyLoss(),550,626911,"Adam ( Parameter Group 0 amsgrad: False betas: (0.9, 0.999) eps: 1e-08 initial_lr: 0.001 lr: 0.001 weight_decay: 0 )",512,"[0.027607522904872894, -0.10506929457187653, 0.5706217885017395, 0.023736795410513878, -0.008169163949787617, -0.19251003861427307, 0.0015102112665772438, -0.022719871252775192, -0.005235062912106514, 0.02469472959637642]","[0.3935532867908478, 0.38353222608566284, 0.3078452944755554, 0.1016252338886261, 0.20884057879447937, 0.1278066635131836, 0.18548814952373505, 0.18666692078113556, 0.058268457651138306, 0.13304036855697632]","[3.658735990524292, 2.106860876083374, 3.4779582023620605, 0.5527340173721313, 56.39833068847656, 1.2801953554153442, 138.0076446533203, 1.0302127599716187, 1.0284048318862915, 0.4066890478134155]",… 54,test_54,"Sequential( (conv0): Conv2d(3, 30, kernel_size=(1, 1), stride=(1, 1)) (softmax1): Softmax() (relu2): ReLU() (batchnorm3): BatchNorm2d(30, eps=1e-05, momentum=0.1, affine=True, track_running_stats=True) (dropout4): Dropout2d(p=0.26577916043480165) (softmax5): Softmax() (relu6): ReLU() (tanh7): Tanh() (dropout8): Dropout2d(p=0.8832000444183847) (flatten9): Flatten() (linear10): Linear(in_features=30720, out_features=32, bias=True) (tanh11): Tanh() (linear12): Linear(in_features=32, out_features=37, bias=True) (linear13): Linear(in_features=37, out_features=10, bias=True) (tanh14): Tanh() )",1024,512,CrossEntropyLoss(),586,984853,"Adam ( Parameter Group 0 amsgrad: False betas: (0.9, 0.999) eps: 1e-08 initial_lr: 0.001 lr: 0.001 weight_decay: 0 )",512,"[-0.052961476147174835, -0.048535581678152084, 1.3028608560562134, 0.4995638132095337, 0.04045798256993294, 0.14525222778320312, -0.0054850452579557896, -0.04344645142555237, 0.006636941805481911, -0.42513513565063477]","[0.5358795523643494, 0.844631552696228, 1.066503882408142, 0.5207341313362122, 0.3440122604370117, 1.9754478931427002, 0.2086271345615387, 0.6408999562263489, 0.20933274924755096, 0.17906959354877472]","[5.080382347106934, 4.5562424659729, 9.160179138183594, 3.9179937839508057, 343.43304443359375, 11.029476165771484, 7.178163528442383, 3.8544700145721436, 4.023177146911621, 1.447754144668579]",… 55,test_55,"Sequential( (batchnorm0): BatchNorm2d(3, eps=1e-05, momentum=0.1, affine=True, track_running_stats=True) (conv1): Conv2d(3, 30, kernel_size=(1, 1), stride=(1, 1)) (tanh2): Tanh() (dropout3): Dropout2d(p=0.08323737085016225) (flatten4): Flatten() (linear5): Linear(in_features=30720, out_features=28, bias=True) (selu6): SELU() (batchnorm1D7): BatchNorm1d(28, eps=1e-05, momentum=0.1, affine=True, track_running_stats=True) (linear8): Linear(in_features=28, out_features=231, bias=True) (leaky_relu9): LeakyReLU(negative_slope=0.16196805614617515) (batchnorm1D10): BatchNorm1d(231, eps=1e-05, momentum=0.1, affine=True, track_running_stats=True) (linear11): Linear(in_features=231, out_features=116, bias=True) (relu12): ReLU() (dropout13): Dropout(p=0.35705583983274136) (linear14): Linear(in_features=116, out_features=10, bias=True) )",1024,512,CrossEntropyLoss(),556,895613,"Adam ( Parameter Group 0 amsgrad: False betas: (0.9, 0.999) eps: 1e-08 initial_lr: 0.001 lr: 0.001 weight_decay: 0 )",512,"[… ","[… ","[… ",… 56,test_56,"Sequential( (conv0): Conv2d(3, 30, kernel_size=(1, 1), stride=(1, 1)) (leaky_relu1): LeakyReLU(negative_slope=0.26696468307349275) (maxpool2): MaxPool2d(kernel_size=5, stride=5, padding=0, dilation=1, ceil_mode=False) (flatten3): Flatten() (linear4): Linear(in_features=1080, out_features=29, bias=True) (relu5): ReLU() (dropout6): Dropout(p=0.18386147967892796) (linear7): Linear(in_features=29, out_features=215, bias=True) (tanh8): Tanh() (dropout9): Dropout(p=0.9455545722774705) (linear10): Linear(in_features=215, out_features=10, bias=True) (softmax11): Softmax() )",1024,512,CrossEntropyLoss(),550,40079,"Adam ( Parameter Group 0 amsgrad: False betas: (0.9, 0.999) eps: 1e-08 initial_lr: 0.001 lr: 0.001 weight_decay: 0 )",512,"[-0.009030196815729141, -0.14072439074516296, -0.006327442824840546, -0.007047584746032953, -0.0013144522672519088, 0.005243341438472271, -0.0010889563709497452, -0.06740546226501465]","[0.488798052072525, 0.4367929995059967, 0.12123136967420578, 0.11766820400953293, 0.1842758059501648, 0.12155679613351822, 0.30630820989608765, 1.7644892930984497]","[4.612107276916504, 2.475268840789795, 21.48373031616211, 0.6237971186637878, 14.549993515014648, 1.779883861541748, 14.199712753295898, 5.297757625579834]",… 57,test_57,"Sequential( (batchnorm0): BatchNorm2d(3, eps=1e-05, momentum=0.1, affine=True, track_running_stats=True) (conv1): Conv2d(3, 27, kernel_size=(1, 1), stride=(1, 1)) (tanh2): Tanh() (batchnorm3): BatchNorm2d(27, eps=1e-05, momentum=0.1, affine=True, track_running_stats=True) (conv4): Conv2d(27, 30, kernel_size=(1, 1), stride=(1, 1)) (tanh5): Tanh() (batchnorm6): BatchNorm2d(30, eps=1e-05, momentum=0.1, affine=True, track_running_stats=True) (conv7): Conv2d(30, 30, kernel_size=(3, 3), stride=(1, 1)) (leaky_relu8): LeakyReLU(negative_slope=0.0197104773512623) (batchnorm9): BatchNorm2d(30, eps=1e-05, momentum=0.1, affine=True, track_running_stats=True) (flatten10): Flatten() (linear11): Linear(in_features=27000, out_features=29, bias=True) (tanh12): Tanh() (batchnorm1D13): BatchNorm1d(29, eps=1e-05, momentum=0.1, affine=True, track_running_stats=True) (linear14): Linear(in_features=29, out_features=10, bias=True) )",1024,512,CrossEntropyLoss(),547,792645,"Adam ( Parameter Group 0 amsgrad: False betas: (0.9, 0.999) eps: 1e-08 initial_lr: 0.001 lr: 0.001 weight_decay: 0 )",512,"[… ","[… ","[… ",… 58,test_58,"Sequential( (flatten0): Flatten() (linear1): Linear(in_features=3072, out_features=27, bias=True) (leaky_relu2): LeakyReLU(negative_slope=0.16979981182930637) (dropout3): Dropout(p=0.9880365763696117) (linear4): Linear(in_features=27, out_features=66, bias=True) (tanh5): Tanh() (batchnorm1D6): BatchNorm1d(66, eps=1e-05, momentum=0.1, affine=True, track_running_stats=True) (linear7): Linear(in_features=66, out_features=161, bias=True) (tanh8): Tanh() (dropout9): Dropout(p=0.9356995420554477) (linear10): Linear(in_features=161, out_features=10, bias=True) )",1024,512,CrossEntropyLoss(),550,97358,"Adam ( Parameter Group 0 amsgrad: False betas: (0.9, 0.999) eps: 1e-08 initial_lr: 0.001 lr: 0.001 weight_decay: 0 )",512,"[-0.00299663795158267, 0.07328007370233536, -0.01362073328346014, 0.0021387843880802393, 0.00016087373660411686, 0.0005362245719879866, -0.00014500424731522799, 6.890921940794215e-05, 8.94074619282037e-05, -0.01596187613904476]","[0.18731839954853058, 0.5033925175666809, 0.19265872240066528, 0.1311677098274231, 0.061219919472932816, 0.003796099219471216, 0.11215729266405106, 0.012063992209732533, 0.04014815390110016, 0.014679587446153164]","[53.954280853271484, 2.594897747039795, 8.15086841583252, 1.0576505661010742, 0.49357250332832336, 0.030913613736629486, 11.560917854309082, 0.15260127186775208, 1.6104406118392944, 0.06698676943778992]",… 59,test_59,"Sequential( (conv0): Conv2d(3, 28, kernel_size=(1, 1), stride=(1, 1)) (leaky_relu1): LeakyReLU(negative_slope=0.2864130987106339) (batchnorm2): BatchNorm2d(28, eps=1e-05, momentum=0.1, affine=True, track_running_stats=True) (flatten3): Flatten() (linear4): Linear(in_features=28672, out_features=26, bias=True) (leaky_relu5): LeakyReLU(negative_slope=0.04226386911647728) (batchnorm1D6): BatchNorm1d(26, eps=1e-05, momentum=0.1, affine=True, track_running_stats=True) (linear7): Linear(in_features=26, out_features=70, bias=True) (tanh8): Tanh() (dropout9): Dropout(p=0.12464819205059985, inplace=False) (linear10): Linear(in_features=70, out_features=10, bias=True) )",1024,512,CrossEntropyLoss(),404,748318,"Adam ( Parameter Group 0 amsgrad: False betas: (0.9, 0.999) eps: 1e-08 initial_lr: 0.001 lr: 0.001 weight_decay: 0 )",512,"[-0.01858910359442234, -0.15069560706615448, 0.9920268058776855, 0.1221732571721077, -0.0028589582070708275, -0.18413448333740234, 1.5687570571899414, 0.017719600349664688, -0.00924152135848999, 0.0018689768621698022, 0.002181182149797678, 0.006504571530967951]","[0.39979174733161926, 0.260210782289505, 0.2264694720506668, 0.07826454937458038, 0.16301634907722473, 0.2543351352214813, 0.0782485157251358, 0.11049623042345047, 0.3413192331790924, 0.32445991039276123, 0.4358946681022644, 0.36649182438850403]","[3.6462581157684326, 1.5697187185287476, 5.379597187042236, 0.7637542486190796, 140.77102661132812, 1.5807284116744995, 8.008684158325195, 0.5598204731941223, 14.56251335144043, 2.695211887359619, 11.524593353271484, 1.0996679067611694]",… 60,test_60,"Sequential( (batchnorm0): BatchNorm2d(3, eps=1e-05, momentum=0.1, affine=True, track_running_stats=True) (flatten1): Flatten() (linear2): Linear(in_features=3072, out_features=28, bias=True) (tanh3): Tanh() (batchnorm1D4): BatchNorm1d(28, eps=1e-05, momentum=0.1, affine=True, track_running_stats=True) (linear5): Linear(in_features=28, out_features=63, bias=True) (leaky_relu6): LeakyReLU(negative_slope=0.8942141184255896) (batchnorm1D7): BatchNorm1d(63, eps=1e-05, momentum=0.1, affine=True, track_running_stats=True) (linear8): Linear(in_features=63, out_features=56, bias=True) (leaky_relu9): LeakyReLU(negative_slope=0.9156668566620696) (dropout10): Dropout(p=0.529553122502091, inplace=False) (linear11): Linear(in_features=56, out_features=10, bias=True) (relu12): ReLU() (softmax13): Softmax(dim=None) )",1024,512,CrossEntropyLoss(),443,92213,"Adam ( Parameter Group 0 amsgrad: False betas: (0.9, 0.999) eps: 1e-08 initial_lr: 0.001 lr: 0.001 weight_decay: 0 )",512,"[0.47210490703582764, 0.025530843064188957, -0.00023023047833703458, -0.03516105189919472, 1.0217872858047485, 0.02939874865114689, 0.000416575
…
3369342982769, 0.10891088843345642, 0.18892110884189606, 0.4915394186973572, 0.06671088933944702, 0.13335160911083221, 0.23064200580120087, 0.3686324656009674, 0.16420726478099823, 0.3237815201282501, 0.25760430097579956, 0.43384209275245667, 0.27575162053108215, 0.6080347895622253]","[0.8205620050430298, 0.16024553775787354, 55.40741729736328, 2.5608813762664795, 5.417889595031738, 0.7101630568504333, 9.684233665466309, 3.483283519744873, 10.389019012451172, 2.563971996307373, 15.298959732055664, 3.2435338497161865, 6.519756317138672, 1.8429768085479736]",… 61,test_61,"Sequential( (batchnorm0): BatchNorm2d(3, eps=1e-05, momentum=0.1, affine=True, track_running_stats=True) (conv1): Conv2d(3, 28, kernel_size=(1, 1), stride=(1, 1)) (selu2): SELU() (batchnorm3): BatchNorm2d(28, eps=1e-05, momentum=0.1, affine=True, track_running_stats=True) (conv4): Conv2d(28, 31, kernel_size=(13, 13), stride=(1, 1)) (relu5): ReLU() (batchnorm6): BatchNorm2d(31, eps=1e-05, momentum=0.1, affine=True, track_running_stats=True) (conv7): Conv2d(31, 29, kernel_size=(9, 9), stride=(1, 1)) (leaky_relu8): LeakyReLU(negative_slope=0.2043170901761845) (batchnorm9): BatchNorm2d(29, eps=1e-05, momentum=0.1, affine=True, track_running_stats=True) (flatten10): Flatten() (linear11): Linear(in_features=4176, out_features=31, bias=True) (tanh12): Tanh() (batchnorm1D13): BatchNorm1d(31, eps=1e-05, momentum=0.1, affine=True, track_running_stats=True) (linear14): Linear(in_features=31, out_features=10, bias=True) )",1024,512,CrossEntropyLoss(),547,349734,"Adam ( Parameter Group 0 amsgrad: False betas: (0.9, 0.999) eps: 1e-08 initial_lr: 0.001 lr: 0.001 weight_decay: 0 )",512,"[… ","[… ","[… ",… 62,test_62,"Sequential( (batchnorm0): BatchNorm2d(3, eps=1e-05, momentum=0.1, affine=True, track_running_stats=True) (conv1): Conv2d(3, 30, kernel_size=(1, 1), stride=(1, 1)) (leaky_relu2): LeakyReLU(negative_slope=0.24190510453773983) (maxpool3): MaxPool2d(kernel_size=1, stride=1, padding=0, dilation=1, ceil_mode=False) (flatten4): Flatten() (linear5): Linear(in_features=30720, out_features=32, bias=True) (selu6): SELU() (dropout7): Dropout(p=0.5980474541353792, inplace=False) (linear8): Linear(in_features=32, out_features=166, bias=True) (relu9): ReLU() (dropout10): Dropout(p=0.04324374623557381, inplace=False) (linear11): Linear(in_features=166, out_features=184, bias=True) (leaky_relu12): LeakyReLU(negative_slope=0.3658803941943619) (batchnorm1D13): BatchNorm1d(184, eps=1e-05, momentum=0.1, affine=True, track_running_stats=True) (linear14): Linear(in_features=184, out_features=10, bias=True) (tanh15): Tanh() )",1024,512,CrossEntropyLoss(),547,1021622,"Adam ( Parameter Group 0 amsgrad: False betas: (0.9, 0.999) eps: 1e-08 initial_lr: 0.001 lr: 0.001 weight_decay: 0 )",512,"[1.3049744367599487, 0.11291977018117905, -0.001299958792515099, -0.1509409099817276, -0.004161464981734753, -0.09301009029150009, -0.07771442085504532, -0.180393785238266
…
0.1954454481601715, 0.06755093485116959, 0.3974245488643646, 0.1555819809436798, 0.21681132912635803, 0.12139680236577988, 0.2968333959579468, 0.8188319802284241, 0.22568528354167938, 0.9121026992797852, 0.26748403906822205, 0.22135710716247559, 0.1869865208864212, 0.13446450233459473]","[2.2771191596984863, 0.217666894197464, 3.7493157386779785, 1.1770563125610352, 215.00437927246094, 0.8565515875816345, 22.361448287963867, 10.771821022033691, 39.673133850097656, 13.714468955993652, 12.905500411987305, 3.216444730758667, 8.974021911621094, 0.8132270574569702]",… 63,test_63,"Sequential( (conv0): Conv2d(3, 29, kernel_size=(1, 1), stride=(1, 1)) (leaky_relu1): LeakyReLU(negative_slope=0.2732258007463987) (dropout2): Dropout2d(p=0.8510010116418228) (conv3): Conv2d(29, 26, kernel_size=(9, 9), stride=(1, 1)) (selu4): SELU() (maxpool5): MaxPool2d(kernel_size=1, stride=1, padding=0, dilation=1, ceil_mode=False) (flatten6): Flatten() (linear7): Linear(in_features=14976, out_features=29, bias=True) (selu8): SELU() (batchnorm1D9): BatchNorm1d(29, eps=1e-05, momentum=0.1, affine=True, track_running_stats=True) (linear10): Linear(in_features=29, out_features=10, bias=True) )",1024,512,CrossEntropyLoss(),550,495907,"Adam ( Parameter Group 0 amsgrad: False betas: (0.9, 0.999) eps: 1e-08 initial_lr: 0.001 lr: 0.001 weight_decay: 0 )",512,"[-0.15452444553375244, 0.027326539158821106, -0.011597041971981525, -2.259437322616577, -0.0009706686832942069, -0.01268975529819727, 3.0548994541168213, 0.04571366682648659, -0.17705164849758148, 0.012957674451172352]","[0.45228856801986694, 1.9448902606964111, 0.23214715719223022, 1.450701355934143, 0.21973463892936707, 1.7240266799926758, 0.34058642387390137, 0.1625148206949234, 0.9670795202255249, 0.2291264832019806]","[4.435081958770752, 10.29244327545166, 57.44195556640625, 13.614140510559082, 144.81019592285156, 9.122947692871094, 16.549558639526367, 0.8944898843765259, 16.714540481567383, 0.688599705696106]",… 64,test_64,"Sequential( (conv0): Conv2d(3, 31, kernel_size=(1, 1), stride=(1, 1)) (dropout1): Dropout2d(p=0.05412175969524102) (selu2): SELU() (flatten3): Flatten() (linear4): Linear(in_features=31744, out_features=27, bias=True) (softmax5): Softmax() (leaky_relu6): LeakyReLU(negative_slope=0.20028219351338006) (linear7): Linear(in_features=27, out_features=60, bias=True) (selu8): SELU() (dropout9): Dropout(p=0.3875956242164138) (dropout10): Dropout(p=0.4993340925027273) (batchnorm1D11): BatchNorm1d(60, eps=1e-05, momentum=0.1, affine=True, track_running_stats=True) (linear12): Linear(in_features=60, out_features=10, bias=True) (dropout13): Dropout(p=0.40047967810150564) )",1024,512,CrossEntropyLoss(),526,859649,"Adam ( Parameter Group 0 amsgrad: False betas: (0.9, 0.999) eps: 1e-08 initial_lr: 0.001 lr: 0.001 weight_decay: 0 )",512,"[-0.03555869683623314, -0.1085682138800621, 0.0011271502589806914, -0.002341340994462371, 0.013851531781256199, 0.007782474625855684, 0.27602195739746094, -0.004962671548128128, 0.0011532441712915897, -0.2144300937652588]","[0.5588119626045227, 0.41303715109825134, 0.13809557259082794, 0.15577474236488342, 0.20671743154525757, 0.05709199234843254, 0.04095616564154625, 0.0624069906771183, 0.18162859976291656, 0.09665794670581818]","[5.370893955230713, 2.3416635990142822, 127.85176086425781, 0.7943916320800781, 8.336310386657715, 0.44265592098236084, 2.1610772609710693, 0.48089608550071716, 4.445354461669922, 0.7374873161315918]",… 65,test_65,"Sequential( (batchnorm0): BatchNorm2d(3, eps=1e-05, momentum=0.1, affine=True, track_running_stats=True) (conv1): Conv2d(3, 31, kernel_size=(1, 1), stride=(1, 1)) (tanh2): Tanh() (batchnorm3): BatchNorm2d(31, eps=1e-05, momentum=0.1, affine=True, track_running_stats=True) (conv4): Conv2d(31, 32, kernel_size=(11, 11), stride=(1, 1)) (selu5): SELU() (batchnorm6): BatchNorm2d(32, eps=1e-05, momentum=0.1, affine=True, track_running_stats=True) (conv7): Conv2d(32, 30, kernel_size=(9, 9), stride=(1, 1)) (selu8): SELU() (maxpool9): MaxPool2d(kernel_size=11, stride=11, padding=0, dilation=1, ceil_mode=False) (flatten10): Flatten() (linear11): Linear(in_features=30, out_features=26, bias=True) (relu12): ReLU() (batchnorm1D13): BatchNorm1d(26, eps=1e-05, momentum=0.1, affine=True, track_running_stats=True) (linear14): Linear(in_features=26, out_features=10, bias=True) )",1024,512,CrossEntropyLoss(),547,199238,"Adam ( Parameter Group 0 amsgrad: False betas: (0.9, 0.999) eps: 1e-08 initial_lr: 0.001 lr: 0.001 weight_decay: 0 )",512,"[… ","[… ","[… ",… 66,test_66,"Sequential( (batchnorm0): BatchNorm2d(3, eps=1e-05, momentum=0.1, affine=True, track_running_stats=True) (flatten1): Flatten() (linear2): Linear(in_features=3072, out_features=27, bias=True) (tanh3): Tanh() (dropout4): Dropout(p=0.6280347268396137, inplace=False) (linear5): Linear(in_features=27, out_features=57, bias=True) (relu6): ReLU() (dropout7): Dropout(p=0.7405725035366215, inplace=False) (linear8): Linear(in_features=57, out_features=179, bias=True) (tanh9): Tanh() (batchnorm1D10): BatchNorm1d(179, eps=1e-05, momentum=0.1, affine=True, track_running_stats=True) (linear11): Linear(in_features=179, out_features=10, bias=True) (softmax12): Softmax(dim=None) (softmax13): Softmax(dim=None) )",1024,512,CrossEntropyLoss(),404,97113,"Adam ( Parameter Group 0 amsgrad: False betas: (0.9, 0.999) eps: 1e-08 initial_lr: 0.001 lr: 0.001 weight_decay: 0 )",512,"[0.9505720138549805, 0.030723346397280693, 0.0027456253301352262, -0.03248857706785202, 0.00760779669508338, -0.1413807421922683
…
171997, -0.0013820851454511285, -0.003909693099558353, 0.035014260560274124]","[0.21142257750034332, 0.05583745613694191, 0.17759469151496887, 0.2637313902378082, 0.23715908825397491, 0.16709589958190918, 0.2749795615673065, 0.41774359345436096, 0.4517655074596405, 0.1047540009021759, 0.24835041165351868, 0.11992461234331131]","[1.673367977142334, 0.09522298723459244, 51.153076171875, 1.3553261756896973, 9.305536270141602, 1.6440569162368774, 27.799989700317383, 5.574731826782227, 19.9245662689209, 1.3977148532867432, 10.5056734085083, 0.3764268755912781]",… 67,test_67,"Sequential( (batchnorm0): BatchNorm2d(3, eps=1e-05, momentum=0.1, affine=True, track_running_stats=True) (conv1): Conv2d(3, 26, kernel_size=(1, 1), stride=(1, 1)) (tanh2): Tanh() (dropout3): Dropout2d(p=0.5249351986916206, inplace=False) (conv4): Conv2d(26, 30, kernel_size=(3, 3), stride=(1, 1)) (selu5): SELU() (dropout6): Dropout2d(p=0.8316133762872869, inplace=False) (conv7): Conv2d(30, 27, kernel_size=(13, 13), stride=(1, 1)) (selu8): SELU() (batchnorm9): BatchNorm2d(27, eps=1e-05, momentum=0.1, affine=True, track_running_stats=True) (flatten10): Flatten() (linear11): Linear(in_features=8748, out_features=32, bias=True) (selu12): SELU() (batchnorm1D13): BatchNorm1d(32, eps=1e-05, momentum=0.1, affine=True, track_running_stats=True) (linear14): Linear(in_features=32, out_features=10, bias=True) (softmax15): Softmax(dim=None) )",1024,512,CrossEntropyLoss(),547,424493,"Adam ( Parameter Group 0 amsgrad: False betas: (0.9, 0.999) eps: 1e-08 initial_lr: 0.001 lr: 0.001 weight_decay: 0 )",512,"[… ","[… ","[… ",… 68,test_68,"Sequential( (batchnorm0): BatchNorm2d(3, eps=1e-05, momentum=0.1, affine=True, track_running_stats=True) (conv1): Conv2d(3, 32, kernel_size=(1, 1), stride=(1, 1)) (selu2): SELU() (batchnorm3): BatchNorm2d(32, eps=1e-05, momentum=0.1, affine=True, track_running_stats=True) (flatten4): Flatten() (linear5): Linear(in_features=32768, out_features=26, bias=True) (selu6): SELU() (dropout7): Dropout(p=0.10787020651978718, inplace=False) (linear8): Linear(in_features=26, out_features=51, bias=True) (selu9): SELU() (dropout10): Dropout(p=0.5494079253786621, inplace=False) (linear11): Linear(in_features=51, out_features=255, bias=True) (relu12): ReLU() (batchnorm1D13): BatchNorm1d(255, eps=1e-05, momentum=0.1, affine=True, track_running_stats=True) (linear14): Linear(in_features=255, out_features=10, bias=True) (batchnorm1D15): BatchNorm1d(10, eps=1e-05, momentum=0.1, affine=True, track_running_stats=True) (dropout16): Dropout(p=0.050384951927696875, inplace=False) )",1024,512,CrossEntropyLoss(),547,869919,"Adam ( Parameter Group 0 amsgrad: False betas: (0.9, 0.999) eps: 1e-08 initial_lr: 0.001 lr: 0.001 weight_decay: 0 )",512,"[… ","[… ","[… ",… 69,test_69,"Sequential( (conv0): Conv2d(3, 26, kernel_size=(1, 1), stride=(1, 1)) (leaky_relu1): LeakyReLU(negative_slope=0.7871614282322352) (dropout2): Dropout2d(p=0.8713506525893584) (conv3): Conv2d(26, 29, kernel_size=(13, 13), stride=(1, 1)) (selu4): SELU() (batchnorm5): BatchNorm2d(29, eps=1e-05, momentum=0.1, affine=True, track_running_stats=True) (flatten6): Flatten() (linear7): Linear(in_features=11600, out_features=26, bias=True) (relu8): ReLU() (batchnorm1D9): BatchNorm1d(26, eps=1e-05, momentum=0.1, affine=True, track_running_stats=True) (linear10): Linear(in_features=26, out_features=10, bias=True) (dropout11): Dropout(p=0.5014211645102731) )",1024,512,CrossEntropyLoss(),439,429565,"Adam ( Parameter Group 0 amsgrad: False betas: (0.9, 0.999) eps: 1e-08 initial_lr: 0.001 lr: 0.001 weight_decay: 0 )",512,"[-0.06176471710205078, 0.011446503922343254, -0.001478813705034554, 0.5247714519500732, 0.4738144278526306, 0.16242484748363495, -0.005383210256695
…
, 1.2708402872085571, 0.29526230692863464, -0.20818105340003967, -0.2924005687236786]","[0.4197794198989868, 0.528264582157135, 0.20174582302570343, 3.4217188358306885, 0.27417561411857605, 0.11174019426107407, 0.19714607298374176, 0.6320741772651672, 0.24593724310398102, 0.27445927262306213, 0.4646143913269043, 0.1196565330028534]","[3.723721742630005, 2.6419677734375, 72.01840209960938, 18.325246810913086, 2.935188055038452, 1.0557829141616821, 108.30909729003906, 3.228811264038086, 6.595683574676514, 2.037123680114746, 8.196199417114258, 0.9918870329856873]",… 70,test_70,"Sequential( (conv0): Conv2d(3, 32, kernel_size=(1, 1), stride=(1, 1)) (tanh1): Tanh() (batchnorm2): BatchNorm2d(32, eps=1e-05, momentum=0.1, affine=True, track_running_stats=True) (conv3): Conv2d(32, 28, kernel_size=(7, 7), stride=(1, 1)) (selu4): SELU() (dropout5): Dropout2d(p=0.5168318428983224, inplace=False) (conv6): Conv2d(28, 32, kernel_size=(1, 1), stride=(1, 1)) (selu7): SELU() (maxpool8): MaxPool2d(kernel_size=3, stride=3, padding=0, dilation=1, ceil_mode=False) (flatten9): Flatten() (linear10): Linear(in_features=2048, out_features=27, bias=True) (tanh11): Tanh() (dropout12): Dropout(p=0.435811539270316, inplace=False) (linear13): Linear(in_features=27, out_features=10, bias=True) (softmax14): Softmax(dim=None) (batchnorm1D15): BatchNorm1d(10, eps=1e-05, momentum=0.1, affine=True, track_running_stats=True) )",1024,512,CrossEntropyLoss(),547,100675,"Adam ( Parameter Group 0 amsgrad: False betas: (0.9, 0.999) eps: 1e-08 initial_lr: 0.001 lr: 0.001 weight_decay: 0 )",512,"[-0.01920245587825775, -0.5002641677856445, 0.050067413598299026, -0.0004061045765411109, -0.0011407461715862155, -0.0034679812379181385, 0.0014987827744334936, -0.29
…
.0327703952789307, 0.027281038463115692, 0.0048206583596765995, 0.17239134013652802, 0.06334058940410614, 0.094866544008255, 0.1970682442188263, 0.1512780636548996, 0.546458899974823, 0.05652555823326111, 0.6024778485298157, 0.6286506056785583, 0.4595750570297241]","[8.832784652709961, 11.666417121887207, 0.32138413190841675, 0.02693842351436615, 36.12202453613281, 0.3296385109424591, 2.8384344577789307, 1.9953815937042236, 35.57291030883789, 2.812373399734497, 0.927306056022644, 1.8495515584945679, 6.713332176208496, 1.379252552986145]",… 71,test_71,"Sequential( (flatten0): Flatten() (linear1): Linear(in_features=3072, out_features=28, bias=True) (relu2): ReLU() (batchnorm1D3): BatchNorm1d(28, eps=1e-05, momentum=0.1, affine=True, track_running_stats=True) (linear4): Linear(in_features=28, out_features=168, bias=True) (tanh5): Tanh() (dropout6): Dropout(p=0.22309555313167728, inplace=False) (linear7): Linear(in_features=168, out_features=189, bias=True) (tanh8): Tanh() (dropout9): Dropout(p=0.3494540779234868, inplace=False) (linear10): Linear(in_features=189, out_features=10, bias=True) )",1024,512,CrossEntropyLoss(),443,124813,"Adam ( Parameter Group 0 amsgrad: False betas: (0.9, 0.999) eps: 1e-08 initial_lr: 0.001 lr: 0.001 weight_decay: 0 )",512,"[0.0001373531122226268, -0.7259541749954224, 2.2943146228790283, 0.1648319810628891, 0.006640375126153231, 0.008344373665750027, -0.0004524184041656554, 0.009590794332325459, 0.001095186686143279, -0.028879648074507713]","[0.16935141384601593, 0.7988244891166687, 0.1869594156742096, 0.15907730162143707, 0.460182249546051, 0.7247390151023865, 0.22376297414302826, 0.6253438591957092, 0.06761132180690765, 0.5331293940544128]","[49.667938232421875, 5.655573844909668, 12.179177284240723, 1.2016651630401611, 31.561859130859375, 9.366316795349121, 39.87198257446289, 8.575295448303223, 2.9389517307281494, 1.6019933223724365]",… 72,test_72,"Sequential( (batchnorm0): BatchNorm2d(3, eps=1e-05, momentum=0.1, affine=True, track_running_stats=True) (flatten1): Flatten() (linear2): Linear(in_features=3072, out_features=29, bias=True) (relu3): ReLU() (dropout4): Dropout(p=0.1596542288075019, inplace=False) (linear5): Linear(in_features=29, out_features=181, bias=True) (tanh6): Tanh() (dropout7): Dropout(p=0.4529281592612111, inplace=False) (linear8): Linear(in_features=181, out_features=38, bias=True) (leaky_relu9): LeakyReLU(negative_slope=0.5681328606907183) (dropout10): Dropout(p=0.3019772246358071, inplace=False) (linear11): Linear(in_features=38, out_features=10, bias=True) )",1024,512,CrossEntropyLoss(),404,101859,"Adam ( Parameter Group 0 amsgrad: False betas: (0.9, 0.999) eps: 1e-08 initial_lr: 0.001 lr: 0.001 weight_decay: 0 )",512,"[1.0261125564575195, 0.060357220470905304, -9.904292528517544e-05, -0.8982584476470947, 0.005414240527898073, -0.058267638087272644, -0.0011374203022569418, -0.14280401170253754, 0.000524380651768297, 0.06700219213962555]","[0.11020302027463913, 0.27059096097946167, 0.17857998609542847, 0.9018391370773315, 0.4433574378490448, 0.6737661361694336, 0.08761178702116013, 0.6653305292129517, 0.06353026628494263, 0.22008612751960754]","[1.7840993404388428, 0.3966962397098541, 53.301570892333984, 6.794995307922363, 32.120574951171875, 9.073448181152344, 7.266054153442383, 4.141681671142578, 1.236844539642334, 0.6934219598770142]",… 73,test_73,"Sequential( (conv0): Conv2d(3, 32, kernel_size=(1, 1), stride=(1, 1)) (dropout1): Dropout2d(p=0.6290015637013321) (flatten2): Flatten() (linear3): Linear(in_features=32768, out_features=26, bias=True) (selu4): SELU() (dropout5): Dropout(p=0.5704812613967024) (linear6): Linear(in_features=26, out_features=183, bias=True) (softmax7): Softmax() (dropout8): Dropout(p=0.5253403498536334) (linear9): Linear(in_features=183, out_features=10, bias=True) (batchnorm1D10): BatchNorm1d(10, eps=1e-05, momentum=0.1, affine=True, track_running_stats=True) )",1024,512,CrossEntropyLoss(),572,858923,"Adam ( Parameter Group 0 amsgrad: False betas: (0.9, 0.999) eps: 1e-08 initial_lr: 0.001 lr: 0.001 weight_decay: 0 )",512,"[-0.0005312438006512821, 0.0016538912896066904, 0.00040225114207714796, -0.25663766264915466, 0.10291645675897598, 0.07581562548875809, -0.11339456588029861, 0.014716227538883686, 1.4280980825424194, 0.0040238844230771065]","[0.042796678841114044, 0.006343215238302946, 0.1809423267841339, 0.9318687915802002, 0.10289272665977478, 0.5439473390579224, 0.283130943775177, 0.149370938539505, 0.2980440557003021, 0.2641277611255646]","[0.4171628952026367, 0.03653572127223015, 167.01390075683594, 4.839620113372803, 10.037814140319824, 7.409575462341309, 13.044120788574219, 0.4505227506160736, 4.603706359863281, 0.7924854159355164]",… 74,test_74,"Sequential( (batchnorm0): BatchNorm2d(3, eps=1e-05, momentum=0.1, affine=True, track_running_stats=True) (flatten1): Flatten() (linear2): Linear(in_features=3072, out_features=27, bias=True) (selu3): SELU() (dropout4): Dropout(p=0.8243592926656714, inplace=False) (linear5): Linear(in_features=27, out_features=177, bias=True) (leaky_relu6): LeakyReLU(negative_slope=0.9468079376407663) (dropout7): Dropout(p=0.6540500340042978, inplace=False) (linear8): Linear(in_features=177, out_features=60, bias=True) (leaky_relu9): LeakyReLU(negative_slope=0.8710642921277001) (batchnorm1D10): BatchNorm1d(60, eps=1e-05, momentum=0.1, affine=True, track_running_stats=True) (linear11): Linear(in_features=60, out_features=10, bias=True) )",1024,512,CrossEntropyLoss(),404,99343,"Adam ( Parameter Group 0 amsgrad: False betas: (0.9, 0.999) eps: 1e-08 initial_lr: 0.001 lr: 0.001 weight_decay: 0 )",512,"[0.14682498574256897, -0.0022684684954583645, -0.00012426772445905954, -0.3135771155357361, -0.007282278500497341, 0.0743340328335762, 0.002938126679509878, 8.536810874938965, 0.8541343212127
…
426983, -0.003263692371547222, -0.0392393097281456]","[0.012216473929584026, 0.01749308407306671, 0.1767495721578598, 0.6078184843063354, 0.20235736668109894, 0.43241143226623535, 0.16622216999530792, 9.890838623046875, 0.17820264399051666, 0.05093815177679062, 0.18276359140872955, 0.09916677325963974]","[0.254894495010376, 0.025049027055501938, 50.90357971191406, 3.501493215560913, 13.996621131896973, 5.8212056159973145, 17.13162612915039, 100.72000885009766, 6.756207466125488, 0.3961047828197479, 4.473757266998291, 0.3223409056663513]",… 75,test_75,"Sequential( (flatten0): Flatten() (linear1): Linear(in_features=3072, out_features=32, bias=True) (batchnorm1D2): BatchNorm1d(32, eps=1e-05, momentum=0.1, affine=True, track_running_stats=True) (dropout3): Dropout(p=0.8413133997024466) (relu4): ReLU() (leaky_relu5): LeakyReLU(negative_slope=0.29206905139570105) (linear6): Linear(in_features=32, out_features=212, bias=True) (linear7): Linear(in_features=212, out_features=10, bias=True) (softmax8): Softmax() )",1024,512,CrossEntropyLoss(),747,107526,"Adam ( Parameter Group 0 amsgrad: False betas: (0.9, 0.999) eps: 1e-08 initial_lr: 0.001 lr: 0.001 weight_decay: 0 )",512,"[0.0035267339553683996, 0.002225687727332115, 0.6225275993347168, -0.2616608440876007, -0.008352190256118774, 0.013534722849726677, 0.004263738635927439, -0.045135773718357086]","[0.25167644023895264, 0.012098751030862331, 0.17736174166202545, 0.17612972855567932, 0.31385669112205505, 0.17041359841823578, 0.33099767565727234, 0.4481203258037567]","[78.91664123535156, 0.06852949410676956, 3.65738582611084, 1.7755553722381592, 25.85806655883789, 2.4832324981689453, 15.237945556640625, 1.351916790008545]",… 76,test_76,"Sequential( (conv0): Conv2d(3, 27, kernel_size=(1, 1), stride=(1, 1)) (selu1): SELU() (batchnorm2): BatchNorm2d(27, eps=1e-05, momentum=0.1, affine=True, track_running_stats=True) (leaky_relu3): LeakyReLU(negative_slope=0.017597305818810915) (tanh4): Tanh() (conv5): Conv2d(27, 27, kernel_size=(13, 13), stride=(1, 1)) (tanh6): Tanh() (batchnorm7): BatchNorm2d(27, eps=1e-05, momentum=0.1, affine=True, track_running_stats=True) (batchnorm8): BatchNorm2d(27, eps=1e-05, momentum=0.1, affine=True, track_running_stats=True) (flatten9): Flatten() (linear10): Linear(in_features=10800, out_features=28, bias=True) (linear11): Linear(in_features=28, out_features=138, bias=True) (dropout12): Dropout(p=0.9600331883673096) (softmax13): Softmax() (linear14): Linear(in_features=138, out_features=10, bias=True) (dropout15): Dropout(p=0.8610663840019644) (softmax16): Softmax() )",1024,512,CrossEntropyLoss(),419,431318,"Adam ( Parameter Group 0 amsgrad: False betas: (0.9, 0.999) eps: 1e-08 initial_lr: 0.001 lr: 0.001 weight_decay: 0 )",512,"[… ","[… ","[… ",… 77,test_77,"Sequential( (batchnorm0): BatchNorm2d(3, eps=1e-05, momentum=0.1, affine=True, track_running_stats=True) (conv1): Conv2d(3, 32, kernel_size=(1, 1), stride=(1, 1)) (leaky_relu2): LeakyReLU(negative_slope=0.8955379376846226) (dropout3): Dropout2d(p=0.5912935963459094) (flatten4): Flatten() (linear5): Linear(in_features=32768, out_features=31, bias=True) (leaky_relu6): LeakyReLU(negative_slope=0.992599496329165) (batchnorm1D7): BatchNorm1d(31, eps=1e-05, momentum=0.1, affine=True, track_running_stats=True) (linear8): Linear(in_features=31, out_features=223, bias=True) (selu9): SELU() (batchnorm1D10): BatchNorm1d(223, eps=1e-05, momentum=0.1, affine=True, track_running_stats=True) (linear11): Linear(in_features=223, out_features=83, bias=True) (relu12): ReLU() (dropout13): Dropout(p=0.6005899427696858) (linear14): Linear(in_features=83, out_features=10, bias=True) (dropout15): Dropout(p=0.5126534844503939) )",1024,512,CrossEntropyLoss(),556,1043049,"Adam ( Parameter Group 0 amsgrad: False betas: (0.9, 0.999) eps: 1e-08 initial_lr: 0.001 lr: 0.001 weight_decay: 0 )",512,"[… ","[… ","[… ",… 78,test_78,"Sequential( (conv0): Conv2d(3, 31, kernel_size=(1, 1), stride=(1, 1)) (selu1): SELU() (dropout2): Dropout2d(p=0.14655253937597823, inplace=False) (conv3): Conv2d(31, 27, kernel_size=(3, 3), stride=(1, 1)) (selu4): SELU() (batchnorm5): BatchNorm2d(27, eps=1e-05, momentum=0.1, affine=True, track_running_stats=True) (flatten6): Flatten() (linear7): Linear(in_features=24300, out_features=30, bias=True) (tanh8): Tanh() (batchnorm1D9): BatchNorm1d(30, eps=1e-05, momentum=0.1, affine=True, track_running_stats=True) (linear10): Linear(in_features=30, out_features=200, bias=True) (tanh11): Tanh() (dropout12): Dropout(p=0.934997881219567, inplace=False) (linear13): Linear(in_features=200, out_features=10, bias=True) )",1024,512,CrossEntropyLoss(),547,745038,"Adam ( Parameter Group 0 amsgrad: False betas: (0.9, 0.999) eps: 1e-08 initial_lr: 0.001 lr: 0.001 weight_decay: 0 )",512,"[-0.04610401764512062, 0.08731348812580109, -0.0008317758911289275, -1.0772740840911865, 0.594998300075531, 0.0535026453435421, -0.0013137215282768011, -0.030450640246272087, 0.322452753782
…
0.5742635130882263, 0.7710620164871216, 0.30007219314575195, 0.9219648838043213, 0.5302445292472839, 0.07781343907117844, 0.2102271020412445, 0.3800137937068939, 0.020535647869110107, 0.022142671048641205, 0.1932745724916458, 0.07177392393350601, 0.1942244917154312, 0.3156481385231018]","[5.526057243347168, 4.251168727874756, 26.042495727539062, 7.309892654418945, 4.107159614562988, 0.48447558283805847, 179.4984588623047, 2.053222179412842, 1.7696049213409424, 0.1194121316075325, 14.975658416748047, 1.01511812210083, 8.684102058410645, 0.9470449686050415]",… 79,test_79,"Sequential( (batchnorm0): BatchNorm2d(3, eps=1e-05, momentum=0.1, affine=True, track_running_stats=True) (conv1): Conv2d(3, 30, kernel_size=(1, 1), stride=(1, 1)) (leaky_relu2): LeakyReLU(negative_slope=0.5487591471715343) (dropout3): Dropout2d(p=0.2834990688624759, inplace=False) (conv4): Conv2d(30, 29, kernel_size=(5, 5), stride=(1, 1)) (relu5): ReLU() (batchnorm6): BatchNorm2d(29, eps=1e-05, momentum=0.1, affine=True, track_running_stats=True) (conv7): Conv2d(29, 32, kernel_size=(9, 9), stride=(1, 1)) (selu8): SELU() (batchnorm9): BatchNorm2d(32, eps=1e-05, momentum=0.1, affine=True, track_running_stats=True) (flatten10): Flatten() (linear11): Linear(in_features=12800, out_features=31, bias=True) (tanh12): Tanh() (dropout13): Dropout(p=0.36361751323464275, inplace=False) (linear14): Linear(in_features=31, out_features=10, bias=True) (tanh15): Tanh() (relu16): ReLU() )",1024,512,CrossEntropyLoss(),547,494378,"Adam ( Parameter Group 0 amsgrad: False betas: (0.9, 0.999) eps: 1e-08 initial_lr: 0.001 lr: 0.001 weight_decay: 0 )",512,"[… ","[… ","[… ",… 80,test_80,"Sequential( (flatten0): Flatten() (linear1): Linear(in_features=3072, out_features=26, bias=True) (selu2): SELU() (batchnorm1D3): BatchNorm1d(26, eps=1e-05, momentum=0.1, affine=True, track_running_stats=True) (linear4): Linear(in_features=26, out_features=163, bias=True) (leaky_relu5): LeakyReLU(negative_slope=0.4524171516565938) (dropout6): Dropout(p=0.3198420942547837) (linear7): Linear(in_features=163, out_features=125, bias=True) (relu8): ReLU() (batchnorm1D9): BatchNorm1d(125, eps=1e-05, momentum=0.1, affine=True, track_running_stats=True) (linear10): Linear(in_features=125, out_features=10, bias=True) (batchnorm1D11): BatchNorm1d(10, eps=1e-05, momentum=0.1, affine=True, track_running_stats=True) )",1024,512,CrossEntropyLoss(),550,106381,"Adam ( Parameter Group 0 amsgrad: False betas: (0.9, 0.999) eps: 1e-08 initial_lr: 0.001 lr: 0.001 weight_decay: 0 )",512,"[-0.0002652457624208182, -0.66888427734375, 0.4872644245624542, 0.03969400376081467, -0.0033807428553700447, -0.10966096818447113, -0.02828916348516941, -0.2740473151
…
9622641801834106, 1.1673457622528076, 0.07164140045642853, 0.026665398851037025, 0.23336350917816162, 0.07604730129241943, 0.21966490149497986, 0.6677277684211731, 0.1605268120765686, 0.024073677137494087, 0.2391911745071411, 0.06106797233223915, 0.5682572722434998, 0.7649428248405457]","[55.45649719238281, 6.760174751281738, 2.5102598667144775, 0.24236758053302765, 15.191747665405273, 1.7020689249038696, 31.613372802734375, 8.042041778564453, 6.549585342407227, 0.2690802216529846, 8.454243659973145, 0.18322820961475372, 11.447864532470703, 2.2954134941101074]",… 81,test_81,"Sequential( (conv0): Conv2d(3, 29, kernel_size=(1, 1), stride=(1, 1)) (leaky_relu1): LeakyReLU(negative_slope=0.9010801151542335) (batchnorm2): BatchNorm2d(29, eps=1e-05, momentum=0.1, affine=True, track_running_stats=True) (conv3): Conv2d(29, 29, kernel_size=(5, 5), stride=(1, 1)) (relu4): ReLU() (dropout5): Dropout2d(p=0.21133904370269463, inplace=False) (flatten6): Flatten() (linear7): Linear(in_features=22736, out_features=29, bias=True) (tanh8): Tanh() (dropout9): Dropout(p=0.7287803845248634, inplace=False) (linear10): Linear(in_features=29, out_features=10, bias=True) )",1024,512,CrossEntropyLoss(),404,680901,"Adam ( Parameter Group 0 amsgrad: False betas: (0.9, 0.999) eps: 1e-08 initial_lr: 0.001 lr: 0.001 weight_decay: 0 )",512,"[0.06915706396102905, -0.3627140522003174, 0.8862000107765198, 0.03075786866247654, 0.004783465061336756, -0.317084938287735, -0.0036009899340569973, 0.09545377641916275, 0.00881520286202430
…
702698, 0.1419726461172104, 0.3986939489841461, 0.20444905757904053, 0.16666075587272644, 0.16118864715099335, 0.27747657895088196, 0.07839576154947281, 0.12079517543315887]","[3.649434804916382, 3.7386741638183594, 4.831100940704346, 2.1161820888519287, 29.652523040771484, 1.9218392372131348, 130.91775512695312, 1.5556485652923584, 1.3411558866500854, 0.4078226387500763]",… 82,test_82,"Sequential( (leaky_relu0): LeakyReLU(negative_slope=0.5563587171551574) (tanh1): Tanh() (leaky_relu2): LeakyReLU(negative_slope=0.9796286957159136) (relu3): ReLU() (selu4): SELU() (flatten5): Flatten() (linear6): Linear(in_features=3072, out_features=26, bias=True) (softmax7): Softmax() (softmax8): Softmax() (selu9): SELU() (linear10): Linear(in_features=26, out_features=10, bias=True) (tanh11): Tanh() )",1024,512,CrossEntropyLoss(),689,80168,"Adam ( Parameter Group 0 amsgrad: False betas: (0.9, 0.999) eps: 1e-08 initial_lr: 0.001 lr: 0.001 weight_decay: 0 )",512,"[-0.2110658884048462, -5.495405673980713, -0.4478975236415863, 0.2839224934577942]","[0.7309598922729492, 4.069223403930664, 8.207439422607422, 0.2468138337135315]","[215.01966857910156, 34.62875747680664, 132.28353881835938, 1.1637755632400513]",… 83,test_83,"Sequential( (relu0): ReLU() (softmax1): Softmax() (conv2): Conv2d(3, 30, kernel_size=(1, 1), stride=(1, 1)) (relu3): ReLU() (leaky_relu4): LeakyReLU(negative_slope=0.7667769954886915) (softmax5): Softmax() (dropout6): Dropout2d(p=0.5824668810009732) (softmax7): Softmax() (leaky_relu8): LeakyReLU(negative_slope=0.15574871623632092) (softmax9): Softmax() (tanh10): Tanh() (conv11): Conv2d(30, 29, kernel_size=(5, 5), stride=(1, 1)) (relu12): ReLU() (softmax13): Softmax() (flatten14): Flatten() (linear15): Linear(in_features=22736, out_features=30, bias=True) (relu16): ReLU() (linear17): Linear(in_features=30, out_features=10, bias=True) )",1024,512,CrossEntropyLoss(),409,704319,"Adam ( Parameter Group 0 amsgrad: False betas: (0.9, 0.999) eps: 1e-08 initial_lr: 0.001 lr: 0.001 weight_decay: 0 )",512,"[0.01553802378475666, 0.00684371218085289, -0.0012290539452806115, -0.005377716850489378, -0.0029584853909909725, -0.0023199403658509254, -0.0065697249956429005, 0.0235870610922575]","[0.34997060894966125, 0.35415709018707275, 0.02118098735809326, 0.022359760478138924, 0.0047097825445234776, 0.00448772544041276, 0.10188592225313187, 0.0034870633389800787]","[3.3049049377441406, 1.9075626134872437, 3.128929376602173, 0.12180936336517334, 4.593463897705078, 0.02730410546064377, 1.765442967414856, 0.0753188505768776]",… 84,test_84,"Sequential( (batchnorm0): BatchNorm2d(3, eps=1e-05, momentum=0.1, affine=True, track_running_stats=True) (softmax1): Softmax() (relu2): ReLU() (selu3): SELU() (tanh4): Tanh() (selu5): SELU() (batchnorm6): BatchNorm2d(3, eps=1e-05, momentum=0.1, affine=True, track_running_stats=True) (conv7): Conv2d(3, 30, kernel_size=(1, 1), stride=(1, 1)) (relu8): ReLU() (leaky_relu9): LeakyReLU(negative_slope=0.39232905725690437) (dropout10): Dropout2d(p=0.04588604906027349) (dropout11): Dropout2d(p=0.13401114929072644) (batchnorm12): BatchNorm2d(30, eps=1e-05, momentum=0.1, affine=True, track_running_stats=True) (tanh13): Tanh() (flatten14): Flatten() (linear15): Linear(in_features=30720, out_features=29, bias=True) (linear16): Linear(in_features=29, out_features=10, bias=True) (batchnorm1D17): BatchNorm1d(10, eps=1e-05, momentum=0.1, affine=True, track_running_stats=True) (dropout18): Dropout(p=0.2509660115340604) )",1024,512,CrossEntropyLoss(),788,891421,"Adam ( Parameter Group 0 amsgrad: False betas: (0.9, 0.999) eps: 1e-08 initial_lr: 0.001 lr: 0.001 weight_decay: 0 )",512,"[0.7267124056816101, -0.009012624621391296, 0.7002897262573242, -0.08325423300266266, 0.09426918625831604, -0.3255282938480
…
[0.2923259437084198, 0.2493615597486496, 0.17755845189094543, 0.08336048573255539, 0.44708362221717834, 0.245548814535141, 1.1471428871154785, 1.3320189714431763, 0.23711948096752167, 0.02743212692439556, 0.26435256004333496, 0.15070489048957825, 0.6942939162254333, 0.8632202744483948]","[1.3248553276062012, 0.3529958128929138, 1.238656997680664, 0.18625718355178833, 4.311549186706543, 2.219818115234375, 14.215275764465332, 8.136326789855957, 223.80857849121094, 0.14525413513183594, 4.495298385620117, 0.4735342264175415, 15.417121887207031, 14.822513580322266]",… 85,test_85,"Sequential( (conv0): Conv2d(3, 30, kernel_size=(1, 1), stride=(1, 1)) (tanh1): Tanh() (dropout2): Dropout2d(p=0.4213805944147907) (flatten3): Flatten() (linear4): Linear(in_features=30720, out_features=31, bias=True) (leaky_relu5): LeakyReLU(negative_slope=0.6152641179903632) (batchnorm1D6): BatchNorm1d(31, eps=1e-05, momentum=0.1, affine=True, track_running_stats=True) (linear7): Linear(in_features=31, out_features=162, bias=True) (selu8): SELU() (batchnorm1D9): BatchNorm1d(162, eps=1e-05, momentum=0.1, affine=True, track_running_stats=True) (linear10): Linear(in_features=162, out_features=10, bias=True) (dropout11): Dropout(p=0.42725865770203175) )",1024,512,CrossEntropyLoss(),550,959671,"Adam ( Parameter Group 0 amsgrad: False betas: (0.9, 0.999) eps: 1e-08 initial_lr: 0.001 lr: 0.001 weight_decay: 0 )",512,"[0.19316937029361725, -0.36989691853523254, -7.81341950641945e-05, 0.21808159351348877, 1.0792533159255981, 0.11865561455488205, -0.0212404709309
…
 1.089704155921936, 0.03762688860297203, -0.040412575006484985, -0.22364993393421173]","[2.2696077823638916, 2.7759792804718018, 0.20930138230323792, 2.105966329574585, 0.39364156126976013, 0.378022700548172, 0.3068383038043976, 0.628248929977417, 0.3382859528064728, 0.17637676000595093, 0.33346670866012573, 0.09411517530679703]","[21.489717483520508, 15.085770606994629, 204.25059509277344, 11.59858512878418, 6.3841233253479, 2.173358678817749, 21.794300079345703, 8.107017517089844, 14.518682479858398, 2.2886388301849365, 13.51586627960205, 0.7615194320678711]",… 86,test_86,"Sequential( (conv0): Conv2d(3, 28, kernel_size=(1, 1), stride=(1, 1)) (batchnorm1): BatchNorm2d(28, eps=1e-05, momentum=0.1, affine=True, track_running_stats=True) (relu2): ReLU() (flatten3): Flatten() (linear4): Linear(in_features=28672, out_features=31, bias=True) (tanh5): Tanh() (linear6): Linear(in_features=31, out_features=114, bias=True) (tanh7): Tanh() (linear8): Linear(in_features=114, out_features=10, bias=True) )",1024,512,CrossEntropyLoss(),429,893829,"Adam ( Parameter Group 0 amsgrad: False betas: (0.9, 0.999) eps: 1e-08 initial_lr: 0.001 lr: 0.001 weight_decay: 0 )",512,"[-0.02278134785592556, 0.051722995936870575, 0.3067415952682495, -0.2272583544254303, -0.0026890956796705723, -0.04557272791862488, 0.006997234188020229, -0.01608525961637497, -0.007346920669078827, 0.02889959327876568]","[0.41996702551841736, 0.3585403859615326, 0.16287225484848022, 0.21276454627513885, 0.18482987582683563, 0.26881444454193115, 0.4202987849712372, 0.23823310434818268, 0.6549463868141174, 0.15759345889091492]","[3.8317744731903076, 1.8830269575119019, 1.8305108547210693, 1.6335097551345825, 174.2720489501953, 1.4940613508224487, 24.98562240600586, 2.538269519805908, 22.105224609375, 0.4815320670604706]",… 87,test_87,"Sequential( (batchnorm0): BatchNorm2d(3, eps=1e-05, momentum=0.1, affine=True, track_running_stats=True) (conv1): Conv2d(3, 29, kernel_size=(1, 1), stride=(1, 1)) (selu2): SELU() (dropout3): Dropout2d(p=0.005576667349660003) (conv4): Conv2d(29, 27, kernel_size=(9, 9), stride=(1, 1)) (relu5): ReLU() (batchnorm6): BatchNorm2d(27, eps=1e-05, momentum=0.1, affine=True, track_running_stats=True) (flatten7): Flatten() (linear8): Linear(in_features=15552, out_features=27, bias=True) (tanh9): Tanh() (batchnorm1D10): BatchNorm1d(27, eps=1e-05, momentum=0.1, affine=True, track_running_stats=True) (linear11): Linear(in_features=27, out_features=10, bias=True) )",1024,512,CrossEntropyLoss(),550,483891,"Adam ( Parameter Group 0 amsgrad: False betas: (0.9, 0.999) eps: 1e-08 initial_lr: 0.001 lr: 0.001 weight_decay: 0 )",512,"[0.6285626888275146, 0.03801368921995163, 0.033536646515131, 0.023120028898119926, 0.01557757705450058, -0.18689748644828796, 0.2027963548898697, 0.016269518062472343, -0.0023917839862406254
…
75212463736534, 0.031067464500665665, 0.37194669246673584, 0.2050228714942932, 0.2040633112192154, 0.5275806188583374, 0.16874825954437256, 0.011936839669942856, 0.1967647522687912, 0.2570238709449768, 0.2699713408946991, 0.3738536536693573, 0.8571516871452332, 0.4785466492176056]","[1.091553807258606, 0.07915488630533218, 3.463446617126465, 1.092000126838684, 51.54026412963867, 2.8600707054138184, 1.3604363203048706, 0.10417060554027557, 127.51282501220703, 1.5155586004257202, 11.64146614074707, 2.0567994117736816, 14.058390617370605, 1.4463051557540894]",… 88,test_88,"Sequential( (batchnorm0): BatchNorm2d(3, eps=1e-05, momentum=0.1, affine=True, track_running_stats=True) (conv1): Conv2d(3, 32, kernel_size=(1, 1), stride=(1, 1)) (selu2): SELU() (batchnorm3): BatchNorm2d(32, eps=1e-05, momentum=0.1, affine=True, track_running_stats=True) (flatten4): Flatten() (linear5): Linear(in_features=32768, out_features=31, bias=True) (leaky_relu6): LeakyReLU(negative_slope=0.5766845668618077) (batchnorm1D7): BatchNorm1d(31, eps=1e-05, momentum=0.1, affine=True, track_running_stats=True) (linear8): Linear(in_features=31, out_features=206, bias=True) (selu9): SELU() (batchnorm1D10): BatchNorm1d(206, eps=1e-05, momentum=0.1, affine=True, track_running_stats=True) (linear11): Linear(in_features=206, out_features=10, bias=True) (softmax12): Softmax(dim=None) )",1024,512,CrossEntropyLoss(),438,1025173,"Adam ( Parameter Group 0 amsgrad: False betas: (0.9, 0.999) eps: 1e-08 initial_lr: 0.001 lr: 0.001 weight_decay: 0 )",512,"[… ","[… ","[… ",… 89,test_89,"Sequential( (batchnorm0): BatchNorm2d(3, eps=1e-05, momentum=0.1, affine=True, track_running_stats=True) (conv1): Conv2d(3, 27, kernel_size=(1, 1), stride=(1, 1)) (tanh2): Tanh() (dropout3): Dropout2d(p=0.97728264872863) (conv4): Conv2d(27, 27, kernel_size=(9, 9), stride=(1, 1)) (tanh5): Tanh() (maxpool6): MaxPool2d(kernel_size=3, stride=3, padding=0, dilation=1, ceil_mode=False) (flatten7): Flatten() (linear8): Linear(in_features=1728, out_features=28, bias=True) (selu9): SELU() (batchnorm1D10): BatchNorm1d(28, eps=1e-05, momentum=0.1, affine=True, track_running_stats=True) (linear11): Linear(in_features=28, out_features=10, bias=True) (tanh12): Tanh() )",1024,512,CrossEntropyLoss(),550,107948,"Adam ( Parameter Group 0 amsgrad: False betas: (0.9, 0.999) eps: 1e-08 initial_lr: 0.001 lr: 0.001 weight_decay: 0 )",512,"[0.040284156799316406, -0.03009718284010887, -0.05055706202983856, -0.013349012471735477, -0.0002634859993122518, -0.12520535290241241, -0.0021193427965044975, -0.9066058993
…
889648, 0.28724849224090576, -0.18838146328926086, -0.38479840755462646]","[0.03964810445904732, 0.09470448642969131, 0.2633260190486908, 0.053102314472198486, 0.2037898302078247, 0.6510642766952515, 0.2206868976354599, 0.7867817282676697, 0.7676816582679749, 0.2969190180301666, 0.6655426025390625, 0.14601252973079681]","[0.08951190859079361, 0.1437198668718338, 2.3988089561462402, 0.27951303124427795, 49.520545959472656, 3.382937431335449, 48.544822692871094, 6.303003311157227, 11.069361686706543, 2.1657960414886475, 11.55502986907959, 1.293280839920044]",… 90,test_90,"Sequential( (batchnorm0): BatchNorm2d(3, eps=1e-05, momentum=0.1, affine=True, track_running_stats=True) (conv1): Conv2d(3, 27, kernel_size=(1, 1), stride=(1, 1)) (tanh2): Tanh() (batchnorm3): BatchNorm2d(27, eps=1e-05, momentum=0.1, affine=True, track_running_stats=True) (flatten4): Flatten() (linear5): Linear(in_features=27648, out_features=30, bias=True) (selu6): SELU() (dropout7): Dropout(p=0.2849090582325732, inplace=False) (linear8): Linear(in_features=30, out_features=68, bias=True) (tanh9): Tanh() (batchnorm1D10): BatchNorm1d(68, eps=1e-05, momentum=0.1, affine=True, track_running_stats=True) (linear11): Linear(in_features=68, out_features=193, bias=True) (selu12): SELU() (batchnorm1D13): BatchNorm1d(193, eps=1e-05, momentum=0.1, affine=True, track_running_stats=True) (linear14): Linear(in_features=193, out_features=10, bias=True) (dropout15): Dropout(p=0.07915574385991841, inplace=False) (batchnorm1D16): BatchNorm1d(10, eps=1e-05, momentum=0.1, affine=True, track_running_stats=True) )",1024,512,CrossEntropyLoss(),547,847545,"Adam ( Parameter Group 0 amsgrad: False betas: (0.9, 0.999) eps: 1e-08 initial_lr: 0.001 lr: 0.001 weight_decay: 0 )",512,"[… ","[… ","[… ",… 91,test_91,"Sequential( (conv0): Conv2d(3, 31, kernel_size=(1, 1), stride=(1, 1)) (conv1): Conv2d(31, 30, kernel_size=(5, 5), stride=(1, 1)) (relu2): ReLU() (relu3): ReLU() (leaky_relu4): LeakyReLU(negative_slope=0.8964692802075951) (batchnorm5): BatchNorm2d(30, eps=1e-05, momentum=0.1, affine=True, track_running_stats=True) (selu6): SELU() (tanh7): Tanh() (dropout8): Dropout2d(p=0.6207937519765899) (maxpool9): MaxPool2d(kernel_size=5, stride=5, padding=0, dilation=1, ceil_mode=False) (batchnorm10): BatchNorm2d(30, eps=1e-05, momentum=0.1, affine=True, track_running_stats=True) (flatten11): Flatten() (linear12): Linear(in_features=750, out_features=26, bias=True) (linear13): Linear(in_features=26, out_features=10, bias=True) (batchnorm1D14): BatchNorm1d(10, eps=1e-05, momentum=0.1, affine=True, track_running_stats=True) )",1024,512,CrossEntropyLoss(),481,43340,"Adam ( Parameter Group 0 amsgrad: False betas: (0.9, 0.999) eps: 1e-08 initial_lr: 0.001 lr: 0.001 weight_decay: 0 )",512,"[0.01663288287818432, -0.011759518645703793, 0.002955813892185688, -0.02417736127972603, 0.46773242950439453, -0.279543936252594, 0.5999979972839355, -0.00552570540457
…
0.20039796829223633, 0.20274578034877777, 0.2660716772079468, 0.4500756859779358, 0.23983190953731537, 0.05062918737530708, 0.04548405483365059, 0.19619299471378326, 0.02258371375501156, 0.23620882630348206, 0.10110094398260117, 0.2369135320186615, 0.3527235984802246]","[3.336402654647827, 1.0995759963989258, 30.91719627380371, 1.43894624710083, 3.52670955657959, 2.003098726272583, 3.297614812850952, 0.24680188298225403, 27.39939308166504, 0.11327628791332245, 3.801520586013794, 0.325135737657547, 7.2934136390686035, 1.0582164525985718]",… 92,test_92,"Sequential( (flatten0): Flatten() (linear1): Linear(in_features=3072, out_features=29, bias=True) (tanh2): Tanh() (dropout3): Dropout(p=0.21322610433742406, inplace=False) (linear4): Linear(in_features=29, out_features=115, bias=True) (selu5): SELU() (dropout6): Dropout(p=0.9962483669156614, inplace=False) (linear7): Linear(in_features=115, out_features=64, bias=True) (relu8): ReLU() (batchnorm1D9): BatchNorm1d(64, eps=1e-05, momentum=0.1, affine=True, track_running_stats=True) (linear10): Linear(in_features=64, out_features=10, bias=True) )",1024,512,CrossEntropyLoss(),438,100769,"Adam ( Parameter Group 0 amsgrad: False betas: (0.9, 0.999) eps: 1e-08 initial_lr: 0.001 lr: 0.001 weight_decay: 0 )",512,"[0.0014765565283596516, 0.22165150940418243, -0.0005500101251527667, 0.07953377813100815, -0.022724267095327377, 0.6770260334014893, 0.2086484283208847, 0.01973242126405239, -0.00957401655614376, -0.03242771700024605]","[0.18522681295871735, 1.846191167831421, 0.10835050791501999, 0.3561806380748749, 0.15927496552467346, 7.0428924560546875, 0.248972550034523, 0.02540430799126625, 0.13031333684921265, 0.06601794064044952]","[55.287227630615234, 9.841774940490723, 6.2563252449035645, 3.89743709564209, 13.801722526550293, 56.162994384765625, 2.5867719650268555, 0.2560828626155853, 3.303011178970337, 0.22302663326263428]",… 93,test_93,"Sequential( (conv0): Conv2d(3, 29, kernel_size=(1, 1), stride=(1, 1)) (conv1): Conv2d(29, 29, kernel_size=(7, 7), stride=(1, 1)) (batchnorm2): BatchNorm2d(29, eps=1e-05, momentum=0.1, affine=True, track_running_stats=True) (conv3): Conv2d(29, 27, kernel_size=(5, 5), stride=(1, 1)) (maxpool4): MaxPool2d(kernel_size=11, stride=11, padding=0, dilation=1, ceil_mode=False) (selu5): SELU() (flatten6): Flatten() (linear7): Linear(in_features=108, out_features=30, bias=True) (selu8): SELU() (softmax9): Softmax() (tanh10): Tanh() (linear11): Linear(in_features=30, out_features=10, bias=True) (softmax12): Softmax() )",1024,512,CrossEntropyLoss(),416,64594,"Adam ( Parameter Group 0 amsgrad: False betas: (0.9, 0.999) eps: 1e-08 initial_lr: 0.001 lr: 0.001 weight_decay: 0 )",512,"[0.007614198140799999, 0.035701457411050797, 0.0014728782698512077, -0.009532595053315163, 0.6483338475227356, 0.03629390522837639, -0.017261970788240433, -0.2326655536
…
8384509087, -0.09133397787809372, -2.280123233795166, -0.34218713641166687]","[0.33090677857398987, 0.3653576374053955, 0.20662987232208252, 0.043452367186546326, 0.3972664475440979, 0.1736820489168167, 0.20028074085712433, 0.1408916860818863, 0.17593184113502502, 0.2538098394870758, 3.6898865699768066, 0.9369918704032898]","[3.0695245265960693, 1.9428269863128662, 41.94641876220703, 0.2355891913175583, 4.075383186340332, 0.9395918846130371, 28.12458610534668, 1.406310796737671, 10.077827453613281, 1.455479383468628, 75.03765869140625, 3.0120596885681152]",… 94,test_94,"Sequential( (batchnorm0): BatchNorm2d(3, eps=1e-05, momentum=0.1, affine=True, track_running_stats=True) (flatten1): Flatten() (linear2): Linear(in_features=3072, out_features=28, bias=True) (tanh3): Tanh() (batchnorm1D4): BatchNorm1d(28, eps=1e-05, momentum=0.1, affine=True, track_running_stats=True) (linear5): Linear(in_features=28, out_features=151, bias=True) (tanh6): Tanh() (batchnorm1D7): BatchNorm1d(151, eps=1e-05, momentum=0.1, affine=True, track_running_stats=True) (linear8): Linear(in_features=151, out_features=202, bias=True) (relu9): ReLU() (dropout10): Dropout(p=0.763990634887504, inplace=False) (linear11): Linear(in_features=202, out_features=10, bias=True) (softmax12): Softmax(dim=None) (batchnorm1D13): BatchNorm1d(10, eps=1e-05, momentum=0.1, affine=True, track_running_stats=True) )",1024,512,CrossEntropyLoss(),438,123541,"Adam ( Parameter Group 0 amsgrad: False betas: (0.9, 0.999) eps: 1e-08 initial_lr: 0.001 lr: 0.001 weight_decay: 0 )",512,"[… ","[… ","[… ",… 95,test_95,"Sequential( (batchnorm0): BatchNorm2d(3, eps=1e-05, momentum=0.1, affine=True, track_running_stats=True) (conv1): Conv2d(3, 32, kernel_size=(1, 1), stride=(1, 1)) (relu2): ReLU() (maxpool3): MaxPool2d(kernel_size=1, stride=1, padding=0, dilation=1, ceil_mode=False) (flatten4): Flatten() (linear5): Linear(in_features=32768, out_features=32, bias=True) (selu6): SELU() (dropout7): Dropout(p=8.206449441106045e-07, inplace=False) (linear8): Linear(in_features=32, out_features=233, bias=True) (relu9): ReLU() (batchnorm1D10): BatchNorm1d(233, eps=1e-05, momentum=0.1, affine=True, track_running_stats=True) (linear11): Linear(in_features=233, out_features=171, bias=True) (relu12): ReLU() (batchnorm1D13): BatchNorm1d(171, eps=1e-05, momentum=0.1, affine=True, track_running_stats=True) (linear14): Linear(in_features=171, out_features=10, bias=True) (softmax15): Softmax(dim=None) (dropout16): Dropout(p=0.8700590521307289, inplace=False) )",1024,512,CrossEntropyLoss(),547,1098973,"Adam ( Parameter Group 0 amsgrad: False betas: (0.9, 0.999) eps: 1e-08 initial_lr: 0.001 lr: 0.001 weight_decay: 0 )",512,"[… ","[… ","[… ",… 96,test_96,"Sequential( (batchnorm0): BatchNorm2d(3, eps=1e-05, momentum=0.1, affine=True, track_running_stats=True) (flatten1): Flatten() (linear2): Linear(in_features=3072, out_features=31, bias=True) (selu3): SELU() (batchnorm1D4): BatchNorm1d(31, eps=1e-05, momentum=0.1, affine=True, track_running_stats=True) (linear5): Linear(in_features=31, out_features=36, bias=True) (relu6): ReLU() (dropout7): Dropout(p=0.1659402501260796) (linear8): Linear(in_features=36, out_features=236, bias=True) (relu9): ReLU() (batchnorm1D10): BatchNorm1d(236, eps=1e-05, momentum=0.1, affine=True, track_running_stats=True) (linear11): Linear(in_features=236, out_features=10, bias=True) )",1024,512,CrossEntropyLoss(),550,108057,"Adam ( Parameter Group 0 amsgrad: False betas: (0.9, 0.999) eps: 1e-08 initial_lr: 0.001 lr: 0.001 weight_decay: 0 )",512,"[0.9980204105377197, 0.10881999135017395, -0.00037098678876645863, -0.16435138881206512, 0.6658831238746643, 0.10577216744422913, -0.0349898636341095, -0.1832302212715149, -0.09066940099000
…
18083190918, 0.18648672103881836, 0.19930900633335114, 1.1139696836471558, 0.11409585922956467, 0.062296465039253235, 0.25263285636901855, 0.11638902127742767, 0.35369473695755005, 0.2588277757167816, 0.21201613545417786, 0.04926124960184097, 0.2483343631029129, 0.06745435297489166]","[1.7332457304000854, 0.3241603970527649, 61.50590896606445, 6.169699668884277, 3.759780168533325, 0.6806215643882751, 8.516416549682617, 1.2972136735916138, 33.65366744995117, 4.2323174476623535, 12.017721176147461, 0.8771569728851318, 12.08458423614502, 0.20291413366794586]",… 97,test_97,"Sequential( (batchnorm0): BatchNorm2d(3, eps=1e-05, momentum=0.1, affine=True, track_running_stats=True) (conv1): Conv2d(3, 27, kernel_size=(1, 1), stride=(1, 1)) (tanh2): Tanh() (batchnorm3): BatchNorm2d(27, eps=1e-05, momentum=0.1, affine=True, track_running_stats=True) (flatten4): Flatten() (linear5): Linear(in_features=27648, out_features=27, bias=True) (leaky_relu6): LeakyReLU(negative_slope=0.07581890927680446) (dropout7): Dropout(p=0.4014811143318312) (linear8): Linear(in_features=27, out_features=65, bias=True) (leaky_relu9): LeakyReLU(negative_slope=0.22048875086345376) (dropout10): Dropout(p=0.8782643760823298) (linear11): Linear(in_features=65, out_features=33, bias=True) (selu12): SELU() (batchnorm1D13): BatchNorm1d(33, eps=1e-05, momentum=0.1, affine=True, track_running_stats=True) (linear14): Linear(in_features=33, out_features=10, bias=True) (dropout15): Dropout(p=0.2781435527178344) (batchnorm1D16): BatchNorm1d(10, eps=1e-05, momentum=0.1, affine=True, track_running_stats=True) )",1024,512,CrossEntropyLoss(),556,751115,"Adam ( Parameter Group 0 amsgrad: False betas: (0.9, 0.999) eps: 1e-08 initial_lr: 0.001 lr: 0.001 weight_decay: 0 )",512,"[… ","[… ","[… ",… 98,test_98,"Sequential( (maxpool0): MaxPool2d(kernel_size=1, stride=1, padding=0, dilation=1, ceil_mode=False) (dropout1): Dropout2d(p=0.18222789437372122) (softmax2): Softmax() (softmax3): Softmax() (maxpool4): MaxPool2d(kernel_size=1, stride=1, padding=0, dilation=1, ceil_mode=False) (flatten5): Flatten() (linear6): Linear(in_features=3072, out_features=29, bias=True) (softmax7): Softmax() (linear8): Linear(in_features=29, out_features=10, bias=True) (softmax9): Softmax() )",1024,512,CrossEntropyLoss(),519,89417,"Adam ( Parameter Group 0 amsgrad: False betas: (0.9, 0.999) eps: 1e-08 initial_lr: 0.001 lr: 0.001 weight_decay: 0 )",512,"[-0.0057669212110340595, -0.005273228045552969, -0.3013164699077606, -0.06478249281644821]","[0.020446576178073883, 0.01143022533506155, 2.513564109802246, 0.6160209774971008]","[6.340880393981934, 0.06681767851114273, 43.03758239746094, 1.8593826293945312]",… 99,test_99,"Sequential( (conv0): Conv2d(3, 31, kernel_size=(1, 1), stride=(1, 1)) (relu1): ReLU() (batchnorm2): BatchNorm2d(31, eps=1e-05, momentum=0.1, affine=True, track_running_stats=True) (conv3): Conv2d(31, 32, kernel_size=(9, 9), stride=(1, 1)) (relu4): ReLU() (dropout5): Dropout2d(p=0.35888014532027557, inplace=False) (conv6): Conv2d(32, 27, kernel_size=(7, 7), stride=(1, 1)) (selu7): SELU() (batchnorm8): BatchNorm2d(27, eps=1e-05, momentum=0.1, affine=True, track_running_stats=True) (flatten9): Flatten() (linear10): Linear(in_features=8748, out_features=32, bias=True) (relu11): ReLU() (dropout12): Dropout(p=0.384396587294513, inplace=False) (linear13): Linear(in_features=32, out_features=10, bias=True) (batchnorm1D14): BatchNorm1d(10, eps=1e-05, momentum=0.1, affine=True, track_running_stats=True) (dropout15): Dropout(p=0.038811549893311925, inplace=False) )",1024,512,CrossEntropyLoss(),547,403305,"Adam ( Parameter Group 0 amsgrad: False betas: (0.9, 0.999) eps: 1e-08 initial_lr: 0.001 lr: 0.001 weight_decay: 0 )",512,"[… ","[… ","[… ",… 100,test_100,"Sequential( (batchnorm0): BatchNorm2d(3, eps=1e-05, momentum=0.1, affine=True, track_running_stats=True) (conv1): Conv2d(3, 29, kernel_size=(1, 1), stride=(1, 1)) (tanh2): Tanh() (batchnorm3): BatchNorm2d(29, eps=1e-05, momentum=0.1, affine=True, track_running_stats=True) (conv4): Conv2d(29, 27, kernel_size=(3, 3), stride=(1, 1)) (selu5): SELU() (batchnorm6): BatchNorm2d(27, eps=1e-05, momentum=0.1, affine=True, track_running_stats=True) (flatten7): Flatten() (linear8): Linear(in_features=24300, out_features=32, bias=True) (selu9): SELU() (batchnorm1D10): BatchNorm1d(32, eps=1e-05, momentum=0.1, affine=True, track_running_stats=True) (linear11): Linear(in_features=32, out_features=173, bias=True) (relu12): ReLU() (dropout13): Dropout(p=0.47150730385756146, inplace=False) (linear14): Linear(in_features=173, out_features=10, bias=True) )",1024,512,CrossEntropyLoss(),547,792453,"Adam ( Parameter Group 0 amsgrad: False betas: (0.9, 0.999) eps: 1e-08 initial_lr: 0.001 lr: 0.001 weight_decay: 0 )",512,"[… ","[… ","[… ",… 101,test_101,"Sequential( (batchnorm0): BatchNorm2d(3, eps=1e-05, momentum=0.1, affine=True, track_running_stats=True) (conv1): Conv2d(3, 28, kernel_size=(1, 1), stride=(1, 1)) (tanh2): Tanh() (batchnorm3): BatchNorm2d(28, eps=1e-05, momentum=0.1, affine=True, track_running_stats=True) (flatten4): Flatten() (linear5): Linear(in_features=28672, out_features=31, bias=True) (tanh6): Tanh() (batchnorm1D7): BatchNorm1d(31, eps=1e-05, momentum=0.1, affine=True, track_running_stats=True) (linear8): Linear(in_features=31, out_features=74, bias=True) (tanh9): Tanh() (batchnorm1D10): BatchNorm1d(74, eps=1e-05, momentum=0.1, affine=True, track_running_stats=True) (linear11): Linear(in_features=74, out_features=10, bias=True) (batchnorm1D12): BatchNorm1d(10, eps=1e-05, momentum=0.1, affine=True, track_running_stats=True) )",1024,512,CrossEntropyLoss(),404,892385,"Adam ( Parameter Group 0 amsgrad: False betas: (0.9, 0.999) eps: 1e-08 initial_lr: 0.001 lr: 0.001 weight_decay: 0 )",512,"[… ","[… ","[… ",… 102,test_102,"Sequential( (flatten0): Flatten() (linear1): Linear(in_features=3072, out_features=29, bias=True) (relu2): ReLU() (batchnorm1D3): BatchNorm1d(29, eps=1e-05, momentum=0.1, affine=True, track_running_stats=True) (linear4): Linear(in_features=29, out_features=110, bias=True) (selu5): SELU() (batchnorm1D6): BatchNorm1d(110, eps=1e-05, momentum=0.1, affine=True, track_running_stats=True) (linear7): Linear(in_features=110, out_features=72, bias=True) (relu8): ReLU() (batchnorm1D9): BatchNorm1d(72, eps=1e-05, momentum=0.1, affine=True, track_running_stats=True) (linear10): Linear(in_features=72, out_features=10, bias=True) (dropout11): Dropout(p=0.1336662354407555, inplace=False) )",1024,512,CrossEntropyLoss(),404,101561,"Adam ( Parameter Group 0 amsgrad: False betas: (0.9, 0.999) eps: 1e-08 initial_lr: 0.001 lr: 0.001 weight_decay: 0 )",512,"[0.0001365962962154299, -0.33034220337867737, 1.44333016872406, 0.11471901088953018, -0.021450268104672432, -0.21121741831302643, 0.
…
 0.2631365954875946, 0.47367942333221436, 0.10333739966154099, 0.20463122427463531, 0.19197650253772736, 0.2195427566766739, 0.1278820037841797, 0.496250182390213, 0.41162586212158203, 0.16301578283309937]","[50.16145324707031, 3.6161248683929443, 7.7828874588012695, 1.1209642887115479, 14.908952713012695, 5.418853759765625, 10.454771995544434, 2.168315887451172, 17.090513229370117, 2.4359376430511475, 14.399564743041992, 4.570101737976074, 11.323103904724121, 1.544127106666565]",… 103,test_103,"Sequential( (softmax0): Softmax() (softmax1): Softmax() (relu2): ReLU() (selu3): SELU() (batchnorm4): BatchNorm2d(3, eps=1e-05, momentum=0.1, affine=True, track_running_stats=True) (dropout5): Dropout2d(p=0.514391432227014) (flatten6): Flatten() (linear7): Linear(in_features=3072, out_features=27, bias=True) (selu8): SELU() (batchnorm1D9): BatchNorm1d(27, eps=1e-05, momentum=0.1, affine=True, track_running_stats=True) (dropout10): Dropout(p=0.14253524704990994) (selu11): SELU() (softmax12): Softmax() (linear13): Linear(in_features=27, out_features=150, bias=True) (selu14): SELU() (tanh15): Tanh() (dropout16): Dropout(p=0.12037842144964717) (linear17): Linear(in_features=150, out_features=10, bias=True) )",1024,512,CrossEntropyLoss(),419,88741,"Adam ( Parameter Group 0 amsgrad: False betas: (0.9, 0.999) eps: 1e-08 initial_lr: 0.001 lr: 0.001 weight_decay: 0 )",512,"[0.032268352806568146, 0.0004107046115677804, -7.930257561383769e-05, -0.2324022799730301, 1.4274133443832397, -0.28861677646636963, -0.0028374241665005684, -0.0019962796941399574, 0.0073738
…
7793, 0.49598148465156555, 0.39832812547683716, 1.701991319656372, 0.4567325711250305]","[58.127201080322266, 0.8643152713775635, 10.457815170288086, 2.026122808456421, 17.1058292388916, 3.7916409969329834, 35.910011291503906, 1.370293140411377]",… 105,test_105,"Sequential( (dropout0): Dropout2d(p=0.46088290802018805) (selu1): SELU() (leaky_relu2): LeakyReLU(negative_slope=0.9133731918619251) (maxpool3): MaxPool2d(kernel_size=1, stride=1, padding=0, dilation=1, ceil_mode=False) (maxpool4): MaxPool2d(kernel_size=1, stride=1, padding=0, dilation=1, ceil_mode=False) (flatten5): Flatten() (linear6): Linear(in_features=3072, out_features=30, bias=True) (leaky_relu7): LeakyReLU(negative_slope=0.31327685765636426) (linear8): Linear(in_features=30, out_features=10, bias=True) (dropout9): Dropout(p=0.9990675990894431) (batchnorm1D10): BatchNorm1d(10, eps=1e-05, momentum=0.1, affine=True, track_running_stats=True) )",1024,512,CrossEntropyLoss(),609,92520,"Adam ( Parameter Group 0 amsgrad: False betas: (0.9, 0.999) eps: 1e-08 initial_lr: 0.001 lr: 0.001 weight_decay: 0 )",512,"[-0.009679888375103474, 0.00891310628503561, -0.03993309661746025, -0.19146956503391266, 0.010334374383091927, -0.0011514438083395362]","[0.17508861422538757, 0.15668568015098572, 0.2104959934949875, 0.3369992673397064, 0.027948802337050438, 0.00754487095400691]","[53.23404312133789, 0.8451893329620361, 3.7049500942230225, 1.178440809249878, 0.08999006450176239, 0.022925619035959244]",… 106,test_106,"Sequential( (batchnorm0): BatchNorm2d(3, eps=1e-05, momentum=0.1, affine=True, track_running_stats=True) (conv1): Conv2d(3, 30, kernel_size=(1, 1), stride=(1, 1)) (tanh2): Tanh() (dropout3): Dropout2d(p=0.3646369318376479) (conv4): Conv2d(30, 27, kernel_size=(11, 11), stride=(1, 1)) (leaky_relu5): LeakyReLU(negative_slope=0.27252160559751504) (batchnorm6): BatchNorm2d(27, eps=1e-05, momentum=0.1, affine=True, track_running_stats=True) (flatten7): Flatten() (linear8): Linear(in_features=13068, out_features=30, bias=True) (tanh9): Tanh() (batchnorm1D10): BatchNorm1d(30, eps=1e-05, momentum=0.1, affine=True, track_running_stats=True) (linear11): Linear(in_features=30, out_features=10, bias=True) )",1024,512,CrossEntropyLoss(),550,490657,"Adam ( Parameter Group 0 amsgrad: False betas: (0.9, 0.999) eps: 1e-08 initial_lr: 0.001 lr: 0.001 weight_decay: 0 )",512,"[0.520626425743103, 0.019874274730682373, -0.004392266273498535, -0.01373098324984312, 0.0001064232419594191, -1.8035848140716553, 0.15717576444149017, 0.01374652236700058, -0.00046759843826
…
7966614, 0.38796502351760864, 0.2760803699493408, 0.2673998475074768, 0.7053844332695007, 0.2390434741973877]","[0.936519980430603, 0.11230168491601944, 3.4814369678497314, 0.7508982419967651, 67.39169311523438, 11.321192741394043, 0.9348530173301697, 0.09259006381034851, 130.52215576171875, 2.5251450538635254, 12.65174674987793, 1.468258261680603, 12.214617729187012, 0.7217476963996887]",… 107,test_107,"Sequential( (softmax0): Softmax() (dropout1): Dropout2d(p=0.2036475429558101) (maxpool2): MaxPool2d(kernel_size=1, stride=1, padding=0, dilation=1, ceil_mode=False) (relu3): ReLU() (batchnorm4): BatchNorm2d(3, eps=1e-05, momentum=0.1, affine=True, track_running_stats=True) (batchnorm5): BatchNorm2d(3, eps=1e-05, momentum=0.1, affine=True, track_running_stats=True) (conv6): Conv2d(3, 31, kernel_size=(1, 1), stride=(1, 1)) (relu7): ReLU() (flatten8): Flatten() (linear9): Linear(in_features=31744, out_features=30, bias=True) (tanh10): Tanh() (relu11): ReLU() (softmax12): Softmax() (selu13): SELU() (linear14): Linear(in_features=30, out_features=10, bias=True) (batchnorm1D15): BatchNorm1d(10, eps=1e-05, momentum=0.1, affine=True, track_running_stats=True) (batchnorm1D16): BatchNorm1d(10, eps=1e-05, momentum=0.1, affine=True, track_running_stats=True) )",1024,512,CrossEntropyLoss(),1069,952836,"Adam ( Parameter Group 0 amsgrad: False betas: (0.9, 0.999) eps: 1e-08 initial_lr: 0.001 lr: 0.001 weight_decay: 0 )",512,"[0.674704909324646, -0.06547800451517105, 0.8009986281394958, 0.09766083210706711, -0.08807136863470078, -0.3655131161212921, -0.012806342914700508, 0.10269288718700
…
0.5692684650421143, 0.5353819131851196, 0.6957314610481262, 0.4055810570716858, 0.5251837372779846, 0.5345060229301453, 0.2799645960330963, 0.48722001910209656, 0.35770171880722046, 1.0182729959487915, 0.6015735268592834, 0.04751500114798546, 0.5602797269821167, 0.5193412899971008]","[1.4190889596939087, 0.7655910849571228, 1.7008469104766846, 0.598000705242157, 5.108483791351318, 3.5654590129852295, 273.4942626953125, 2.683373212814331, 6.207370281219482, 6.426621913909912, 9.548026084899902, 0.15516671538352966, 11.758305549621582, 1.5580270290374756]",… 108,test_108,"Sequential( (batchnorm0): BatchNorm2d(3, eps=1e-05, momentum=0.1, affine=True, track_running_stats=True) (conv1): Conv2d(3, 29, kernel_size=(1, 1), stride=(1, 1)) (selu2): SELU() (batchnorm3): BatchNorm2d(29, eps=1e-05, momentum=0.1, affine=True, track_running_stats=True) (conv4): Conv2d(29, 29, kernel_size=(11, 11), stride=(1, 1)) (relu5): ReLU() (batchnorm6): BatchNorm2d(29, eps=1e-05, momentum=0.1, affine=True, track_running_stats=True) (conv7): Conv2d(29, 30, kernel_size=(13, 13), stride=(1, 1)) (selu8): SELU() (dropout9): Dropout2d(p=0.18667384232969964) (flatten10): Flatten() (linear11): Linear(in_features=3000, out_features=28, bias=True) (relu12): ReLU() (dropout13): Dropout(p=0.8969117850641474) (linear14): Linear(in_features=28, out_features=10, bias=True) (leaky_relu15): LeakyReLU(negative_slope=0.586038991459922) )",1024,512,CrossEntropyLoss(),556,333406,"Adam ( Parameter Group 0 amsgrad: False betas: (0.9, 0.999) eps: 1e-08 initial_lr: 0.001 lr: 0.001 weight_decay: 0 )",512,"[… ","[… ","[… ",… 109,test_109,"Sequential( (conv0): Conv2d(3, 31, kernel_size=(1, 1), stride=(1, 1)) (leaky_relu1): LeakyReLU(negative_slope=0.9043896681030825) (dropout2): Dropout2d(p=0.8317658103596679) (conv3): Conv2d(31, 27, kernel_size=(9, 9), stride=(1, 1)) (relu4): ReLU() (maxpool5): MaxPool2d(kernel_size=13, stride=13, padding=0, dilation=1, ceil_mode=False) (flatten6): Flatten() (linear7): Linear(in_features=27, out_features=27, bias=True) (leaky_relu8): LeakyReLU(negative_slope=0.5261430228436433) (batchnorm1D9): BatchNorm1d(27, eps=1e-05, momentum=0.1, affine=True, track_running_stats=True) (linear10): Linear(in_features=27, out_features=10, bias=True) )",1024,512,CrossEntropyLoss(),550,69038,"Adam ( Parameter Group 0 amsgrad: False betas: (0.9, 0.999) eps: 1e-08 initial_lr: 0.001 lr: 0.001 weight_decay: 0 )",512,"[-0.012670068070292473, 0.02965420112013817, -0.0020368171390146017, 0.9242308139801025, -0.014805179089307785, 2.4978039264678955, 1.3517770767211914, 0.016215767711400986, -0.0044170645996928215, 0.0010237873066216707]","[0.23705829679965973, 0.1219252496957779, 0.20616577565670013, 2.4243595600128174, 0.224089354276657…
742061615, 0.2609063684940338, 0.2109442949295044]","[64.71076202392578, 13.533185958862305, 4.4732666015625, 0.337444007396698, 15.514078140258789, 1.8989102840423584, 35.678977966308594, 3.55996036529541, 10.008715629577637, 0.6329737305641174]",… 440,test_440,"Sequential( (flatten0): Flatten() (linear1): Linear(in_features=3072, out_features=26, bias=True) (selu2): SELU() (batchnorm1D3): BatchNorm1d(26, eps=1e-05, momentum=0.1, affine=True, track_running_stats=True) (linear4): Linear(in_features=26, out_features=252, bias=True) (selu5): SELU() (batchnorm1D6): BatchNorm1d(252, eps=1e-05, momentum=0.1, affine=True, track_running_stats=True) (linear7): Linear(in_features=252, out_features=123, bias=True) (leaky_relu8): LeakyReLU(negative_slope=0.047840434028755485) (dropout9): Dropout(p=0.1501610449551728) (linear10): Linear(in_features=123, out_features=10, bias=True) )",1024,512,CrossEntropyLoss(),550,119617,"Adam ( Parameter Group 0 amsgrad: False betas: (0.9, 0.999) eps: 1e-08 initial_lr: 0.001 lr: 0.001 weight_decay: 0 )",512,"[-0.00012140964827267453, -0.5489031672477722, 1.1162692308425903, 0.12903480231761932, -0.03704320266842842, -0.11737262457609177, 0.9072318077087402, 0.011738063767552376, -0.005381292663
…
.1191895380616188, -0.03529573976993561]","[0.19406741857528687, 1.1413556337356567, 0.1866750419139862, 0.23495879769325256, 0.3127748966217041, 0.6550568342208862, 0.3102300465106964, 0.17512960731983185, 0.24417661130428314, 0.11031589657068253, 0.4684255123138428, 0.43630242347717285]","[54.84629440307617, 6.356176376342773, 5.767899990081787, 1.3464919328689575, 25.49240493774414, 10.543984413146973, 15.217438697814941, 2.780824899673462, 42.99870300292969, 2.3962531089782715, 16.9453182220459, 1.3136574029922485]",… 441,test_441,"Sequential( (relu0): ReLU() (flatten1): Flatten() (linear2): Linear(in_features=3072, out_features=27, bias=True) (dropout3): Dropout(p=0.4842092379203553) (batchnorm1D4): BatchNorm1d(27, eps=1e-05, momentum=0.1, affine=True, track_running_stats=True) (tanh5): Tanh() (softmax6): Softmax() (leaky_relu7): LeakyReLU(negative_slope=0.19703506245517655) (tanh8): Tanh() (softmax9): Softmax() (softmax10): Softmax() (selu11): SELU() (linear12): Linear(in_features=27, out_features=10, bias=True) )",1024,512,CrossEntropyLoss(),499,83305,"Adam ( Parameter Group 0 amsgrad: False betas: (0.9, 0.999) eps: 1e-08 initial_lr: 0.001 lr: 0.001 weight_decay: 0 )",512,"[-0.0007639285176992416, 0.19614331424236298, 8.863211631774902, -5.148886203765869, -0.009174301289021969, 0.08011803030967712]","[0.17944902181625366, 2.089733362197876, 2.0517959594726562, 0.8400311470031738, 0.24521522223949432, 0.04458923265337944]","[51.681480407714844, 10.7042236328125, 47.22798156738281, 27.095102310180664, 4.02465295791626, 0.2865009009838104]",… 442,test_442,"Sequential( (batchnorm0): BatchNorm2d(3, eps=1e-05, momentum=0.1, affine=True, track_running_stats=True) (flatten1): Flatten() (linear2): Linear(in_features=3072, out_features=29, bias=True) (relu3): ReLU() (dropout4): Dropout(p=0.07061626240323549) (linear5): Linear(in_features=29, out_features=160, bias=True) (leaky_relu6): LeakyReLU(negative_slope=0.21129215815117752) (batchnorm1D7): BatchNorm1d(160, eps=1e-05, momentum=0.1, affine=True, track_running_stats=True) (linear8): Linear(in_features=160, out_features=163, bias=True) (relu9): ReLU() (batchnorm1D10): BatchNorm1d(163, eps=1e-05, momentum=0.1, affine=True, track_running_stats=True) (linear11): Linear(in_features=163, out_features=10, bias=True) (tanh12): Tanh() )",1024,512,CrossEntropyLoss(),550,122452,"Adam ( Parameter Group 0 amsgrad: False betas: (0.9, 0.999) eps: 1e-08 initial_lr: 0.001 lr: 0.001 weight_decay: 0 )",512,"[0.5410302877426147, 0.043015774339437485, -7.498611375922337e-05, -0.6531034111976624, -0.03508150205016136, -0.07770587503910065, 0.6322635412216187, 0.07066585123538971,
…
0.030601847916841507, 0.0622103326022625, 0.20757035911083221, 0.45006439089775085, 0.26275601983070374, 0.6700318455696106, 0.11384160816669464, 0.1284707933664322, 0.2296212613582611, 0.23245567083358765, 0.24642029404640198, 0.3350386917591095, 0.42213261127471924, 0.08809886127710342]","[0.9380906820297241, 0.11528798937797546, 61.9544563293457, 4.2475175857543945, 18.05520248413086, 8.505763053894043, 8.125377655029297, 1.8502000570297241, 37.65459060668945, 3.311554193496704, 16.972166061401367, 4.769516468048096, 17.53431510925293, 1.0547714233398438]",… 443,test_443,"Sequential( (conv0): Conv2d(3, 28, kernel_size=(1, 1), stride=(1, 1)) (batchnorm1): BatchNorm2d(28, eps=1e-05, momentum=0.1, affine=True, track_running_stats=True) (dropout2): Dropout2d(p=0.7963153358753101) (flatten3): Flatten() (linear4): Linear(in_features=28672, out_features=28, bias=True) (tanh5): Tanh() (linear6): Linear(in_features=28, out_features=154, bias=True) (selu7): SELU() (softmax8): Softmax() (batchnorm1D9): BatchNorm1d(154, eps=1e-05, momentum=0.1, affine=True, track_running_stats=True) (batchnorm1D10): BatchNorm1d(154, eps=1e-05, momentum=0.1, affine=True, track_running_stats=True) (linear11): Linear(in_features=154, out_features=10, bias=True) )",1024,512,CrossEntropyLoss(),424,809644,"Adam ( Parameter Group 0 amsgrad: False betas: (0.9, 0.999) eps: 1e-08 initial_lr: 0.001 lr: 0.001 weight_decay: 0 )",512,"[-0.017409466207027435, 0.019786115735769272, 0.48332536220550537, -0.010010689496994019, 0.0004322366730775684, -0.04893927648663521, -0.00017513238708488643, -0.24116674065589905, 0.37225
…
.4738774597644806, 0.36434218287467957, 0.07186764478683472, 0.07307373732328415, 0.1916799694299698, 0.8578277230262756, 0.21285732090473175, 0.49476030468940735, 0.24413803219795227, 0.038973573595285416, 0.18443560600280762, 0.02963193692266941, 0.16470754146575928, 0.06837976723909378]","[4.32017707824707, 1.8960703611373901, 2.58463716506958, 0.3833794593811035, 171.74559020996094, 4.464919567108154, 13.975834846496582, 6.812443733215332, 5.519021034240723, 0.4824933409690857, 6.141850471496582, 0.43467435240745544, 6.493603229522705, 0.209385946393013]",… 444,test_444,"Sequential( (conv0): Conv2d(3, 27, kernel_size=(1, 1), stride=(1, 1)) (tanh1): Tanh() (dropout2): Dropout2d(p=0.3741988915340255) (flatten3): Flatten() (linear4): Linear(in_features=27648, out_features=26, bias=True) (relu5): ReLU() (dropout6): Dropout(p=0.20602195092611852) (linear7): Linear(in_features=26, out_features=97, bias=True) (leaky_relu8): LeakyReLU(negative_slope=0.7540252922415043) (dropout9): Dropout(p=0.2937009861290275) (linear10): Linear(in_features=97, out_features=10, bias=True) (batchnorm1D11): BatchNorm1d(10, eps=1e-05, momentum=0.1, affine=True, track_running_stats=True) (batchnorm1D12): BatchNorm1d(10, eps=1e-05, momentum=0.1, affine=True, track_running_stats=True) )",1024,512,CrossEntropyLoss(),550,722621,"Adam ( Parameter Group 0 amsgrad: False betas: (0.9, 0.999) eps: 1e-08 initial_lr: 0.001 lr: 0.001 weight_decay: 0 )",512,"[0.47258561849594116, -0.7661998271942139, 0.0002464696590323001, -3.7770771980285645, -0.05831005051732063, 1.6618000268936157, 0.038810402154922485, 0.0101607181131
…
18091, 0.012312616221606731, 4.140016078948975, 0.011117435060441494]","[2.6443326473236084, 2.6990127563476562, 0.20702485740184784, 1.1373720169067383, 0.259880006313324, 1.0439262390136719, 0.25211888551712036, 0.06335947662591934, 0.8828368186950684, 0.03826506808400154, 0.5331291556358337, 0.6053289771080017]","[24.031023025512695, 14.326622009277344, 175.5258331298828, 20.081445693969727, 13.373005867004395, 19.300058364868164, 7.9406867027282715, 0.19277501106262207, 11.608512878417969, 0.12121858447790146, 13.189213752746582, 1.8163273334503174]",… 445,test_445,"Sequential( (batchnorm0): BatchNorm2d(3, eps=1e-05, momentum=0.1, affine=True, track_running_stats=True) (flatten1): Flatten() (linear2): Linear(in_features=3072, out_features=27, bias=True) (selu3): SELU() (batchnorm1D4): BatchNorm1d(27, eps=1e-05, momentum=0.1, affine=True, track_running_stats=True) (linear5): Linear(in_features=27, out_features=228, bias=True) (leaky_relu6): LeakyReLU(negative_slope=0.03907631904710418) (dropout7): Dropout(p=0.7486525629908253) (linear8): Linear(in_features=228, out_features=249, bias=True) (leaky_relu9): LeakyReLU(negative_slope=0.9306008649969154) (dropout10): Dropout(p=0.13035087621993935) (linear11): Linear(in_features=249, out_features=10, bias=True) (dropout12): Dropout(p=0.3133656735260668) (softmax13): Softmax() )",1024,512,CrossEntropyLoss(),550,148936,"Adam ( Parameter Group 0 amsgrad: False betas: (0.9, 0.999) eps: 1e-08 initial_lr: 0.001 lr: 0.001 weight_decay: 0 )",512,"[0.5842069983482361, 0.04047929495573044, -0.002702052006497979, -0.20190532505512238, 0.6171910166740417, 0.16111628711223
…
1074621677, 0.08755829930305481, -0.04352746158838272, -0.30562880635261536]","[0.14255115389823914, 0.19787155091762543, 0.2262113392353058, 0.7117714881896973, 0.15468920767307281, 0.08648927509784698, 0.25847750902175903, 0.08803799003362656, 0.2546951174736023, 0.2941923141479492, 0.2702367901802063, 0.2756924033164978]","[1.0317630767822266, 0.28848227858543396, 65.15312194824219, 3.777930974960327, 3.3025922775268555, 0.9462391138076782, 20.495908737182617, 4.634214878082275, 60.796966552734375, 4.83457612991333, 13.655919075012207, 1.2720638513565063]",… 446,test_446,"Sequential( (conv0): Conv2d(3, 31, kernel_size=(1, 1), stride=(1, 1)) (relu1): ReLU() (tanh2): Tanh() (softmax3): Softmax() (selu4): SELU() (selu5): SELU() (softmax6): Softmax() (tanh7): Tanh() (batchnorm8): BatchNorm2d(31, eps=1e-05, momentum=0.1, affine=True, track_running_stats=True) (flatten9): Flatten() (linear10): Linear(in_features=31744, out_features=30, bias=True) (batchnorm1D11): BatchNorm1d(30, eps=1e-05, momentum=0.1, affine=True, track_running_stats=True) (tanh12): Tanh() (selu13): SELU() (linear14): Linear(in_features=30, out_features=79, bias=True) (dropout15): Dropout(p=0.7199970422399868) (batchnorm1D16): BatchNorm1d(79, eps=1e-05, momentum=0.1, affine=True, track_running_stats=True) (linear17): Linear(in_features=79, out_features=10, bias=True) )",1024,512,CrossEntropyLoss(),595,956003,"Adam ( Parameter Group 0 amsgrad: False betas: (0.9, 0.999) eps: 1e-08 initial_lr: 0.001 lr: 0.001 weight_decay: 0 )",512,"[0.013750345446169376, -0.39947405457496643, 0.5801355242729187, 0.02766246907413006, 0.00018810345500241965, 0.029498029500246048, 2.471534013748169, 0.3948999047279358, -0.0057808998972177
…
1.000549554824829, 0.7371028065681458, 0.5454498529434204, 0.2770432233810425, 0.20942482352256775, 0.2132648378610611, 0.8634130954742432, 0.6387826800346375, 0.2486961930990219, 0.30713361501693726, 0.48679280281066895, 0.15026554465293884, 0.4585795998573303, 0.2341969907283783]","[9.597850799560547, 4.609400749206543, 4.399857044219971, 1.5252245664596558, 204.3711395263672, 1.1597753763198853, 14.313398361206055, 4.063450813293457, 12.107905387878418, 2.7135403156280518, 18.103092193603516, 1.330431342124939, 12.881203651428223, 0.7026095390319824]",… 447,test_447,"Sequential( (batchnorm0): BatchNorm2d(3, eps=1e-05, momentum=0.1, affine=True, track_running_stats=True) (conv1): Conv2d(3, 29, kernel_size=(1, 1), stride=(1, 1)) (leaky_relu2): LeakyReLU(negative_slope=0.18639434306171454) (batchnorm3): BatchNorm2d(29, eps=1e-05, momentum=0.1, affine=True, track_running_stats=True) (conv4): Conv2d(29, 26, kernel_size=(5, 5), stride=(1, 1)) (tanh5): Tanh() (batchnorm6): BatchNorm2d(26, eps=1e-05, momentum=0.1, affine=True, track_running_stats=True) (conv7): Conv2d(26, 26, kernel_size=(1, 1), stride=(1, 1)) (leaky_relu8): LeakyReLU(negative_slope=0.7174978830876821) (dropout9): Dropout2d(p=0.8943886291470132) (flatten10): Flatten() (linear11): Linear(in_features=20384, out_features=30, bias=True) (leaky_relu12): LeakyReLU(negative_slope=0.012942973685037495) (batchnorm1D13): BatchNorm1d(30, eps=1e-05, momentum=0.1, affine=True, track_running_stats=True) (linear14): Linear(in_features=30, out_features=10, bias=True) (dropout15): Dropout(p=0.05161160767268347) (dropout16): Dropout(p=0.3436640823730175) )",1024,512,CrossEntropyLoss(),556,631730,"Adam ( Parameter Group 0 amsgrad: False betas: (0.9, 0.999) eps: 1e-08 initial_lr: 0.001 lr: 0.001 weight_decay: 0 )",512,"[… ","[… ","[… ",… 448,test_448,"Sequential( (conv0): Conv2d(3, 30, kernel_size=(1, 1), stride=(1, 1)) (leaky_relu1): LeakyReLU(negative_slope=0.9418785104203319) (batchnorm2): BatchNorm2d(30, eps=1e-05, momentum=0.1, affine=True, track_running_stats=True) (conv3): Conv2d(30, 28, kernel_size=(1, 1), stride=(1, 1)) (leaky_relu4): LeakyReLU(negative_slope=0.6154478021017942) (dropout5): Dropout2d(p=0.24200642227422475, inplace=False) (flatten6): Flatten() (linear7): Linear(in_features=28672, out_features=31, bias=True) (tanh8): Tanh() (dropout9): Dropout(p=0.043320153036402465, inplace=False) (linear10): Linear(in_features=31, out_features=10, bias=True) )",1024,512,CrossEntropyLoss(),404,890231,"Adam ( Parameter Group 0 amsgrad: False betas: (0.9, 0.999) eps: 1e-08 initial_lr: 0.001 lr: 0.001 weight_decay: 0 )",512,"[-0.037837617099285126, -0.003914398141205311, 0.7891649007797241, -0.018414147198200226, 0.04307783022522926, -0.021845687180757523, -0.00542640034109354, -0.16180483996868134, -0.0039100986905395985, -0.005465579219162464]","[0.38365280628204346, 0.45964568853378296, 0.16099707782268524, 0.13790598511695862, 0.18075568974018097, 0.3241994082927704, 0.18865740299224854, 0.9784348607063293, 0.2480139285326004, 0.49197712540626526]","[3.6371302604675293, 2.475360631942749, 4.408527374267578, 0.7494637966156006, 5.382482528686523, 1.6885508298873901, 177.9356689453125, 5.434302806854248, 4.360230445861816, 1.4760324954986572]",… 449,test_449,"Sequential( (conv0): Conv2d(3, 29, kernel_size=(1, 1), stride=(1, 1)) (tanh1): Tanh() (maxpool2): MaxPool2d(kernel_size=1, stride=1, padding=0, dilation=1, ceil_mode=False) (flatten3): Flatten() (linear4): Linear(in_features=29696, out_features=28, bias=True) (selu5): SELU() (dropout6): Dropout(p=0.5649904214375832) (linear7): Linear(in_features=28, out_features=175, bias=True) (tanh8): Tanh() (dropout9): Dropout(p=0.33710903991777674) (linear10): Linear(in_features=175, out_features=10, bias=True) (leaky_relu11): LeakyReLU(negative_slope=0.15847321633780143) (batchnorm1D12): BatchNorm1d(10, eps=1e-05, momentum=0.1, affine=True, track_running_stats=True) )",1024,512,CrossEntropyLoss(),550,838487,"Adam ( Parameter Group 0 amsgrad: False betas: (0.9, 0.999) eps: 1e-08 initial_lr: 0.001 lr: 0.001 weight_decay: 0 )",512,"[-0.18354173004627228, 0.04825429245829582, -0.008681298233568668, -0.21397359669208527, 0.004645114298909903, -0.019912773743271828, 0.0025335033424198627, 3.4173500537872314, 1.7823047637939453, 0.005741945002228022]","[1.4512295722961426, 0.7995615005493164, 0.19125546514987946, 0.0954594761133194, 0.3559550344944, 1.144287347793579, 0.18350878357887268, 1.2462568283081055, 0.24612730741500854, 0.3745920956134796]","[13.566598892211914, 4.238854885101318, 174.57762145996094, 1.2361267805099487, 24.916433334350586, 15.096484184265137, 7.6752610206604, 11.435088157653809, 5.6843037605285645, 1.1239229440689087]",… 450,test_450,"Sequential( (conv0): Conv2d(3, 32, kernel_size=(1, 1), stride=(1, 1)) (relu1): ReLU() (batchnorm2): BatchNorm2d(32, eps=1e-05, momentum=0.1, affine=True, track_running_stats=True) (conv3): Conv2d(32, 30, kernel_size=(9, 9), stride=(1, 1)) (relu4): ReLU() (batchnorm5): BatchNorm2d(30, eps=1e-05, momentum=0.1, affine=True, track_running_stats=True) (conv6): Conv2d(30, 31, kernel_size=(7, 7), stride=(1, 1)) (tanh7): Tanh() (dropout8): Dropout2d(p=0.9260081619394133, inplace=False) (flatten9): Flatten() (linear10): Linear(in_features=10044, out_features=29, bias=True) (selu11): SELU() (dropout12): Dropout(p=0.292685077756786, inplace=False) (linear13): Linear(in_features=29, out_features=10, bias=True) (relu14): ReLU() )",1024,512,CrossEntropyLoss(),547,415248,"Adam ( Parameter Group 0 amsgrad: False betas: (0.9, 0.999) eps: 1e-08 initial_lr: 0.001 lr: 0.001 weight_decay: 0 )",512,"[-0.040500201284885406, -0.17775310575962067, 0.8820582628250122, 0.1561288684606552, -0.006727483123540878, -0.29579558968544006, 0.2556292414665222, 0.00395168038085103, -
…
, 0.12765416502952576, 0.0067442175932228565, 0.14516791701316833, 0.8247368931770325, 0.0430549681186676, 0.3199954926967621]","[3.8143413066864014, 2.6714043617248535, 5.344921112060547, 1.5579580068588257, 60.66695785522461, 2.0470523834228516, 1.8192713260650635, 0.02738782949745655, 27.250225067138672, 0.0369400829076767, 78.34709167480469, 4.678988456726074, 0.8663775324821472, 7.649320602416992]",… 451,test_451,"Sequential( (softmax0): Softmax() (relu1): ReLU() (softmax2): Softmax() (tanh3): Tanh() (dropout4): Dropout2d(p=0.979184029817815) (tanh5): Tanh() (flatten6): Flatten() (linear7): Linear(in_features=3072, out_features=27, bias=True) (softmax8): Softmax() (batchnorm1D9): BatchNorm1d(27, eps=1e-05, momentum=0.1, affine=True, track_running_stats=True) (tanh10): Tanh() (relu11): ReLU() (selu12): SELU() (linear13): Linear(in_features=27, out_features=10, bias=True) (softmax14): Softmax() )",1024,512,CrossEntropyLoss(),954,83305,"Adam ( Parameter Group 0 amsgrad: False betas: (0.9, 0.999) eps: 1e-08 initial_lr: 0.001 lr: 0.001 weight_decay: 0 )",512,"[-0.0022889163810759783, 0.3460792899131775, 0.30384841561317444, -0.1408221274614334, 0.008924162946641445, 0.014190152287483215]","[0.015066303312778473, 0.2723800241947174, 0.2241552472114563, 0.09838663786649704, 0.09437989443540573, 0.033270712941884995]","[4.388857841491699, 2.27217435836792, 1.9491353034973145, 0.8871931433677673, 1.5548756122589111, 0.10943522304296494]",… 452,test_452,"Sequential( (conv0): Conv2d(3, 29, kernel_size=(1, 1), stride=(1, 1)) (relu1): ReLU() (batchnorm2): BatchNorm2d(29, eps=1e-05, momentum=0.1, affine=True, track_running_stats=True) (conv3): Conv2d(29, 27, kernel_size=(7, 7), stride=(1, 1)) (leaky_relu4): LeakyReLU(negative_slope=0.5515821000575832) (batchnorm5): BatchNorm2d(27, eps=1e-05, momentum=0.1, affine=True, track_running_stats=True) (conv6): Conv2d(27, 31, kernel_size=(9, 9), stride=(1, 1)) (relu7): ReLU() (batchnorm8): BatchNorm2d(31, eps=1e-05, momentum=0.1, affine=True, track_running_stats=True) (flatten9): Flatten() (linear10): Linear(in_features=10044, out_features=29, bias=True) (tanh11): Tanh() (batchnorm1D12): BatchNorm1d(29, eps=1e-05, momentum=0.1, affine=True, track_running_stats=True) (linear13): Linear(in_features=29, out_features=10, bias=True) (dropout14): Dropout(p=0.08861389403776565, inplace=False) (batchnorm1D15): BatchNorm1d(10, eps=1e-05, momentum=0.1, affine=True, track_running_stats=True) )",1024,512,CrossEntropyLoss(),547,398195,"Adam ( Parameter Group 0 amsgrad: False betas: (0.9, 0.999) eps: 1e-08 initial_lr: 0.001 lr: 0.001 weight_decay: 0 )",512,"[… ","[… ","[… ",… 453,test_453,"Sequential( (conv0): Conv2d(3, 28, kernel_size=(1, 1), stride=(1, 1)) (leaky_relu1): LeakyReLU(negative_slope=0.6082463066546276) (batchnorm2): BatchNorm2d(28, eps=1e-05, momentum=0.1, affine=True, track_running_stats=True) (flatten3): Flatten() (linear4): Linear(in_features=28672, out_features=28, bias=True) (relu5): ReLU() (dropout6): Dropout(p=0.5719238992195083) (linear7): Linear(in_features=28, out_features=44, bias=True) (tanh8): Tanh() (batchnorm1D9): BatchNorm1d(44, eps=1e-05, momentum=0.1, affine=True, track_running_stats=True) (linear10): Linear(in_features=44, out_features=10, bias=True) )",1024,512,CrossEntropyLoss(),550,804826,"Adam ( Parameter Group 0 amsgrad: False betas: (0.9, 0.999) eps: 1e-08 initial_lr: 0.001 lr: 0.001 weight_decay: 0 )",512,"[0.005093137733638287, -0.0563286691904068, 0.19979079067707062, 0.02002004347741604, -0.014430196955800056, -0.17077450454235077, 0.011133940890431404, 0.02978229522705078, 0.66336739063262
…
3107, -0.007024909369647503, -0.007124591153115034]","[0.390214741230011, 0.3550530970096588, 0.15047027170658112, 0.022271785885095596, 0.18184463679790497, 0.10678693652153015, 0.3341400623321533, 0.9984889626502991, 0.1622111201286316, 0.06570972502231598, 0.24476464092731476, 0.1598750501871109]","[3.5553319454193115, 1.8688325881958008, 1.3149042129516602, 0.15689274668693542, 163.4449005126953, 1.060416579246521, 11.730021476745605, 6.550508975982666, 4.52701997756958, 0.43610453605651855, 5.130505561828613, 0.48015400767326355]",… 454,test_454,"Sequential( (flatten0): Flatten() (linear1): Linear(in_features=3072, out_features=30, bias=True) (leaky_relu2): LeakyReLU(negative_slope=0.20509479194312552) (dropout3): Dropout(p=0.34173411905426987, inplace=False) (linear4): Linear(in_features=30, out_features=238, bias=True) (tanh5): Tanh() (dropout6): Dropout(p=0.04962441980208776, inplace=False) (linear7): Linear(in_features=238, out_features=238, bias=True) (selu8): SELU() (batchnorm1D9): BatchNorm1d(238, eps=1e-05, momentum=0.1, affine=True, track_running_stats=True) (linear10): Linear(in_features=238, out_features=10, bias=True) (batchnorm1D11): BatchNorm1d(10, eps=1e-05, momentum=0.1, affine=True, track_running_stats=True) )",1024,512,CrossEntropyLoss(),404,159336,"Adam ( Parameter Group 0 amsgrad: False betas: (0.9, 0.999) eps: 1e-08 initial_lr: 0.001 lr: 0.001 weight_decay: 0 )",512,"[4.2094910895684734e-05, -1.8966014385223389, 0.00018657003238331527, 0.0629710927605629, -0.00286094774492085, -0.5810714960098267, 0.9583578109741211, -0.0004798931
…
, 1.4085969924926758, 0.19871345162391663, 0.3348807990550995, 0.17245228588581085, 0.004965080413967371, 0.1932578831911087, 0.05044756829738617, 0.31583458185195923, 0.3978006839752197]","[47.8181266784668, 11.938799858093262, 18.89249038696289, 21.70682144165039, 47.29827880859375, 10.34106731414795, 15.021295547485352, 0.07679414004087448, 9.426475524902344, 0.1560310423374176, 7.137831211090088, 1.193446159362793]",… 455,test_455,"Sequential( (selu0): SELU() (dropout1): Dropout2d(p=0.7659034054568181) (softmax2): Softmax() (leaky_relu3): LeakyReLU(negative_slope=0.6341899063947798) (conv4): Conv2d(3, 27, kernel_size=(1, 1), stride=(1, 1)) (dropout5): Dropout2d(p=0.8493515932562261) (flatten6): Flatten() (linear7): Linear(in_features=27648, out_features=27, bias=True) (leaky_relu8): LeakyReLU(negative_slope=0.36339982121889935) (linear9): Linear(in_features=27, out_features=239, bias=True) (batchnorm1D10): BatchNorm1d(239, eps=1e-05, momentum=0.1, affine=True, track_running_stats=True) (dropout11): Dropout(p=0.8508602265352577) (linear12): Linear(in_features=239, out_features=175, bias=True) (batchnorm1D13): BatchNorm1d(175, eps=1e-05, momentum=0.1, affine=True, track_running_stats=True) (dropout14): Dropout(p=0.8120538325616193) (relu15): ReLU() (linear16): Linear(in_features=175, out_features=10, bias=True) (batchnorm1D17): BatchNorm1d(10, eps=1e-05, momentum=0.1, affine=True, track_running_stats=True) (batchnorm1D18): BatchNorm1d(10, eps=1e-05, momentum=0.1, affine=True, track_running_stats=True) )",1024,512,CrossEntropyLoss(),400,797951,"Adam ( Parameter Group 0 amsgrad: False betas: (0.9, 0.999) eps: 1e-08 initial_lr: 0.001 lr: 0.001 weight_decay: 0 )",512,"[… ","[… ","[… ",… 456,test_456,"Sequential( (tanh0): Tanh() (batchnorm1): BatchNorm2d(3, eps=1e-05, momentum=0.1, affine=True, track_running_stats=True) (batchnorm2): BatchNorm2d(3, eps=1e-05, momentum=0.1, affine=True, track_running_stats=True) (relu3): ReLU() (conv4): Conv2d(3, 32, kernel_size=(1, 1), stride=(1, 1)) (flatten5): Flatten() (linear6): Linear(in_features=32768, out_features=32, bias=True) (tanh7): Tanh() (linear8): Linear(in_features=32, out_features=10, bias=True) (softmax9): Softmax() )",1024,512,CrossEntropyLoss(),467,1049078,"Adam ( Parameter Group 0 amsgrad: False betas: (0.9, 0.999) eps: 1e-08 initial_lr: 0.001 lr: 0.001 weight_decay: 0 )",512,"[0.4730379581451416, -0.1953040063381195, 0.5305567979812622, 0.2884555757045746, -0.004965785425156355, -0.01634456217288971, 0.00015476293629035354, -0.001016281545162201, -0.010729814879596233, 0.012930131517350674]","[0.12192023545503616, 0.13426275551319122, 0.12173856794834137, 0.18978789448738098, 0.41274237632751465, 0.11262226104736328, 0.20541314780712128, 0.21252204477787018, 2.103532314300537, 0.871516227722168]","[0.8372716307640076, 0.3879225552082062, 0.9349395036697388, 0.5671496391296387, 4.023209095001221, 0.6338341236114502, 210.343017578125, 1.1832866668701172, 37.570777893066406, 2.614868402481079]",… 457,test_457,"Sequential( (conv0): Conv2d(3, 29, kernel_size=(1, 1), stride=(1, 1)) (relu1): ReLU() (batchnorm2): BatchNorm2d(29, eps=1e-05, momentum=0.1, affine=True, track_running_stats=True) (conv3): Conv2d(29, 26, kernel_size=(3, 3), stride=(1, 1)) (leaky_relu4): LeakyReLU(negative_slope=0.765912413112748) (dropout5): Dropout2d(p=0.29917136616874196) (flatten6): Flatten() (linear7): Linear(in_features=23400, out_features=31, bias=True) (relu8): ReLU() (dropout9): Dropout(p=0.5972786293826242) (linear10): Linear(in_features=31, out_features=10, bias=True) (dropout11): Dropout(p=0.18333682600292223) (batchnorm1D12): BatchNorm1d(10, eps=1e-05, momentum=0.1, affine=True, track_running_stats=True) )",1024,512,CrossEntropyLoss(),550,732757,"Adam ( Parameter Group 0 amsgrad: False betas: (0.9, 0.999) eps: 1e-08 initial_lr: 0.001 lr: 0.001 weight_decay: 0 )",512,"[-0.02640288509428501, -0.16688288748264313, 0.4181576669216156, 0.030198484659194946, -0.0008727366803213954, -0.012818003073334694, -0.0028375841211527586, -2.26676
…
,"[0.4200821816921234, 0.3698045015335083, 0.2834135890007019, 0.02887720614671707, 0.20232270658016205, 0.1159314215183258, 0.21751460433006287, 1.8855260610580444, 0.20919059216976166, 1.2948026657104492, 0.267538845539093, 0.3044739365577698]","[3.903458595275879, 2.153322219848633, 2.7055258750915527, 0.22314904630184174, 16.66570281982422, 0.5833302140235901, 185.2737274169922, 16.30769920349121, 4.888060569763184, 10.468552589416504, 15.255353927612305, 0.9134439826011658]",… 458,test_458,"Sequential( (leaky_relu0): LeakyReLU(negative_slope=0.8915346967667441) (relu1): ReLU() (batchnorm2): BatchNorm2d(3, eps=1e-05, momentum=0.1, affine=True, track_running_stats=True) (leaky_relu3): LeakyReLU(negative_slope=0.7776573363840039) (conv4): Conv2d(3, 27, kernel_size=(1, 1), stride=(1, 1)) (leaky_relu5): LeakyReLU(negative_slope=0.03480141603165421) (tanh6): Tanh() (flatten7): Flatten() (linear8): Linear(in_features=27648, out_features=30, bias=True) (selu9): SELU() (linear10): Linear(in_features=30, out_features=10, bias=True) (tanh11): Tanh() (batchnorm1D12): BatchNorm1d(10, eps=1e-05, momentum=0.1, affine=True, track_running_stats=True) )",1024,512,CrossEntropyLoss(),1037,829914,"Adam ( Parameter Group 0 amsgrad: False betas: (0.9, 0.999) eps: 1e-08 initial_lr: 0.001 lr: 0.001 weight_decay: 0 )",512,"[0.8559794425964355, 0.29588639736175537, -0.09174323081970215, -0.22629109025001526, -0.007416716776788235, 0.01679575815796852, 0.0008319324697367847, -0.050989843904972076, 6.722207069396973, -0.020745618268847466]","[0.15770366787910461, 0.034114643931388855, 0.7068122029304504, 0.3402695059776306, 0.19903850555419922, 0.2380603551864624, 0.15222404897212982, 0.10988042503595352, 0.681510865688324, 0.42182105779647827]","[1.4992809295654297, 0.5147561430931091, 6.375613212585449, 2.0959420204162598, 181.397216796875, 1.2852908372879028, 2.63223934173584, 0.3669646084308624, 21.35557746887207, 1.2671626806259155]",… 459,test_459,"Sequential( (batchnorm0): BatchNorm2d(3, eps=1e-05, momentum=0.1, affine=True, track_running_stats=True) (conv1): Conv2d(3, 32, kernel_size=(1, 1), stride=(1, 1)) (tanh2): Tanh() (dropout3): Dropout2d(p=0.3546487611213529, inplace=False) (conv4): Conv2d(32, 31, kernel_size=(5, 5), stride=(1, 1)) (relu5): ReLU() (batchnorm6): BatchNorm2d(31, eps=1e-05, momentum=0.1, affine=True, track_running_stats=True) (flatten7): Flatten() (linear8): Linear(in_features=24304, out_features=31, bias=True) (relu9): ReLU() (batchnorm1D10): BatchNorm1d(31, eps=1e-05, momentum=0.1, affine=True, track_running_stats=True) (linear11): Linear(in_features=31, out_features=10, bias=True) )",1024,512,CrossEntropyLoss(),404,778864,"Adam ( Parameter Group 0 amsgrad: False betas: (0.9, 0.999) eps: 1e-08 initial_lr: 0.001 lr: 0.001 weight_decay: 0 )",512,"[0.7412060499191284, 0.06633760780096054, 0.012848351150751114, -0.024317055940628052, 0.002802807604894042, -0.6462327241897583, 0.8721911311149597, 0.15949125587940216, -0.0049360133707523
…
4, 0.19293011724948883, 0.4756300747394562, 0.6215471029281616, 0.10167469084262848, 0.17786911129951477, 0.399768590927124, 0.2796629071235657, 0.12927673757076263, 0.7717510461807251, 0.20075027644634247]","[1.2838945388793945, 0.15456949174404144, 2.5989792346954346, 1.129804015159607, 30.3852596282959, 4.442165374755859, 5.930587291717529, 1.04818594455719, 154.44972229003906, 2.311110496520996, 17.565940856933594, 0.7671344876289368, 13.778640747070312, 0.6033933758735657]",… 460,test_460,"Sequential( (dropout0): Dropout2d(p=0.1972614957078398) (softmax1): Softmax() (relu2): ReLU() (conv3): Conv2d(3, 27, kernel_size=(1, 1), stride=(1, 1)) (batchnorm4): BatchNorm2d(27, eps=1e-05, momentum=0.1, affine=True, track_running_stats=True) (conv5): Conv2d(27, 32, kernel_size=(1, 1), stride=(1, 1)) (selu6): SELU() (leaky_relu7): LeakyReLU(negative_slope=0.8930940422775564) (dropout8): Dropout2d(p=0.513471516426613) (flatten9): Flatten() (linear10): Linear(in_features=32768, out_features=26, bias=True) (linear11): Linear(in_features=26, out_features=10, bias=True) (leaky_relu12): LeakyReLU(negative_slope=0.9442735848137329) )",1024,512,CrossEntropyLoss(),476,853322,"Adam ( Parameter Group 0 amsgrad: False betas: (0.9, 0.999) eps: 1e-08 initial_lr: 0.001 lr: 0.001 weight_decay: 0 )",512,"[0.025283746421337128, -0.13330402970314026, 0.011164022609591484, 0.000591868010815233, 0.00022692795027978718, -0.0002724808291532099, -0.0014226367929950356, -0.07104185968637466, -0.022770345211029053, 0.06429850310087204]","[0.4781918227672577, 0.24916791915893555, 0.025740427896380424, 0.0035163629800081253, 0.048088572919368744, 0.0034907544031739235, 0.1391153186559677, 0.3447154462337494, 0.07562241703271866, 0.14683671295642853]","[4.2831268310546875, 1.447062373161316, 0.14349901676177979, 0.018191849812865257, 1.412706971168518, 0.019496724009513855, 128.41302490234375, 1.7612321376800537, 1.2712054252624512, 0.485172301530838]",… 461,test_461,"Sequential( (batchnorm0): BatchNorm2d(3, eps=1e-05, momentum=0.1, affine=True, track_running_stats=True) (conv1): Conv2d(3, 27, kernel_size=(1, 1), stride=(1, 1)) (relu2): ReLU() (maxpool3): MaxPool2d(kernel_size=3, stride=3, padding=0, dilation=1, ceil_mode=False) (flatten4): Flatten() (linear5): Linear(in_features=2700, out_features=29, bias=True) (leaky_relu6): LeakyReLU(negative_slope=0.2694602402748483) (dropout7): Dropout(p=0.7300692251024091) (linear8): Linear(in_features=29, out_features=111, bias=True) (selu9): SELU() (batchnorm1D10): BatchNorm1d(111, eps=1e-05, momentum=0.1, affine=True, track_running_stats=True) (linear11): Linear(in_features=111, out_features=10, bias=True) (softmax12): Softmax() )",1024,512,CrossEntropyLoss(),550,83115,"Adam ( Parameter Group 0 amsgrad: False betas: (0.9, 0.999) eps: 1e-08 initial_lr: 0.001 lr: 0.001 weight_decay: 0 )",512,"[0.8009729385375977, 0.13429084420204163, -0.02717018686234951, -0.10858481377363205, -0.008776961825788021, -0.07221923023462296, -0.03454186022281647, -0.12580285966
…
625629425049, 0.07239221781492233, -0.040988676249980927, 0.04165242984890938]","[0.15852072834968567, 0.05887172371149063, 0.48451003432273865, 0.3569919168949127, 0.24112902581691742, 0.20998060703277588, 0.35988789796829224, 0.5070074200630188, 0.4516938030719757, 0.2170328050851822, 0.44913148880004883, 0.2656780183315277]","[1.4053221940994263, 0.24705030024051666, 4.34048318862915, 1.9057471752166748, 67.51730346679688, 1.177210807800293, 20.50935935974121, 5.480232238769531, 18.2523250579834, 2.4006388187408447, 15.019033432006836, 0.8078444004058838]",… 462,test_462,"Sequential( (conv0): Conv2d(3, 29, kernel_size=(1, 1), stride=(1, 1)) (relu1): ReLU() (batchnorm2): BatchNorm2d(29, eps=1e-05, momentum=0.1, affine=True, track_running_stats=True) (conv3): Conv2d(29, 29, kernel_size=(5, 5), stride=(1, 1)) (selu4): SELU() (batchnorm5): BatchNorm2d(29, eps=1e-05, momentum=0.1, affine=True, track_running_stats=True) (flatten6): Flatten() (linear7): Linear(in_features=22736, out_features=27, bias=True) (leaky_relu8): LeakyReLU(negative_slope=0.8612222715933406) (dropout9): Dropout(p=0.2110332626025767) (linear10): Linear(in_features=27, out_features=10, bias=True) (softmax11): Softmax() (softmax12): Softmax() )",1024,512,CrossEntropyLoss(),550,635465,"Adam ( Parameter Group 0 amsgrad: False betas: (0.9, 0.999) eps: 1e-08 initial_lr: 0.001 lr: 0.001 weight_decay: 0 )",512,"[-0.05079653114080429, -0.13633231818675995, 0.6732732653617859, 0.27246353030204773, -0.05409061163663864, -0.1938018500804901, 0.8153948187828
…
671416283, -0.03408021107316017, -0.00910643208771944, -0.08195267617702484]","[0.4366997182369232, 0.37887147068977356, 0.3450583517551422, 0.15211188793182373, 0.2715151309967041, 0.32090944051742554, 0.43469348549842834, 0.0451313778758049, 0.22206343710422516, 0.3673733174800873, 0.27517059445381165, 0.9728081226348877]","[4.0774078369140625, 2.1350009441375732, 4.059487342834473, 1.673534870147705, 40.14242172241211, 1.9931721687316895, 4.95701789855957, 0.2765708863735199, 173.9932403564453, 1.881595253944397, 4.515612602233887, 2.929908514022827]",… 463,test_463,"Sequential( (batchnorm0): BatchNorm2d(3, eps=1e-05, momentum=0.1, affine=True, track_running_stats=True) (conv1): Conv2d(3, 29, kernel_size=(1, 1), stride=(1, 1)) (relu2): ReLU() (batchnorm3): BatchNorm2d(29, eps=1e-05, momentum=0.1, affine=True, track_running_stats=True) (flatten4): Flatten() (linear5): Linear(in_features=29696, out_features=30, bias=True) (tanh6): Tanh() (dropout7): Dropout(p=0.3619951963643755) (linear8): Linear(in_features=30, out_features=125, bias=True) (selu9): SELU() (dropout10): Dropout(p=0.7848004399973392) (linear11): Linear(in_features=125, out_features=227, bias=True) (leaky_relu12): LeakyReLU(negative_slope=0.8241544281449851) (batchnorm1D13): BatchNorm1d(227, eps=1e-05, momentum=0.1, affine=True, track_running_stats=True) (linear14): Linear(in_features=227, out_features=10, bias=True) )",1024,512,CrossEntropyLoss(),556,926301,"Adam ( Parameter Group 0 amsgrad: False betas: (0.9, 0.999) eps: 1e-08 initial_lr: 0.001 lr: 0.001 weight_decay: 0 )",512,"[… ","[… ","[… ",… 464,test_464,"Sequential( (conv0): Conv2d(3, 27, kernel_size=(1, 1), stride=(1, 1)) (tanh1): Tanh() (maxpool2): MaxPool2d(kernel_size=1, stride=1, padding=0, dilation=1, ceil_mode=False) (flatten3): Flatten() (linear4): Linear(in_features=27648, out_features=28, bias=True) (tanh5): Tanh() (dropout6): Dropout(p=0.446992404198596, inplace=False) (linear7): Linear(in_features=28, out_features=54, bias=True) (leaky_relu8): LeakyReLU(negative_slope=0.6081588553074977) (batchnorm1D9): BatchNorm1d(54, eps=1e-05, momentum=0.1, affine=True, track_running_stats=True) (linear10): Linear(in_features=54, out_features=10, bias=True) (softmax11): Softmax(dim=None) (softmax12): Softmax(dim=None) )",1024,512,CrossEntropyLoss(),404,776504,"Adam ( Parameter Group 0 amsgrad: False betas: (0.9, 0.999) eps: 1e-08 initial_lr: 0.001 lr: 0.001 weight_decay: 0 )",512,"[0.05424463748931885, 0.01897464506328106, -0.0015057044802233577, 0.016245337203145027, 0.003909348510205746, 0.015506702475249767, 2.5280394554138184, -0.13483014702796936, -0.05382608249783516, 0.10415943711996078]","[0.4852125942707062, 0.16553111374378204, 0.1844121664762497, 0.15301856398582458, 0.2252623736858368, 0.501815915107727, 0.3094177544116974, 0.30602797865867615, 0.5455922484397888, 0.3348848223686218]","[4.367246150970459, 0.8497854471206665, 162.26119995117188, 0.7997412085533142, 8.757624626159668, 3.6550514698028564, 18.713289260864258, 2.4382970333099365, 12.728281021118164, 1.0572712421417236]",… 465,test_465,"Sequential( (batchnorm0): BatchNorm2d(3, eps=1e-05, momentum=0.1, affine=True, track_running_stats=True) (flatten1): Flatten() (linear2): Linear(in_features=3072, out_features=29, bias=True) (tanh3): Tanh() (dropout4): Dropout(p=0.32438894168438437) (tanh5): Tanh() (leaky_relu6): LeakyReLU(negative_slope=0.1315782710752147) (linear7): Linear(in_features=29, out_features=10, bias=True) (softmax8): Softmax() )",1024,512,CrossEntropyLoss(),1096,89423,"Adam ( Parameter Group 0 amsgrad: False betas: (0.9, 0.999) eps: 1e-08 initial_lr: 0.001 lr: 0.001 weight_decay: 0 )",512,"[0.3829965591430664, 0.013586903922259808, 2.609445982670877e-05, -1.1551592350006104, -1.2716703414916992, 0.040633536875247955]","[0.023051483556628227, 0.040967907756567, 0.3107333779335022, 0.9094486832618713, 4.2307658195495605, 0.8481226563453674]","[0.6641700863838196, 0.062534399330616, 92.74597930908203, 7.864864826202393, 75.11253356933594, 2.547610282897949]",… 466,test_466,"Sequential( (batchnorm0): BatchNorm2d(3, eps=1e-05, momentum=0.1, affine=True, track_running_stats=True) (conv1): Conv2d(3, 30, kernel_size=(1, 1), stride=(1, 1)) (leaky_relu2): LeakyReLU(negative_slope=0.6026632150592529) (batchnorm3): BatchNorm2d(30, eps=1e-05, momentum=0.1, affine=True, track_running_stats=True) (flatten4): Flatten() (linear5): Linear(in_features=30720, out_features=29, bias=True) (tanh6): Tanh() (batchnorm1D7): BatchNorm1d(29, eps=1e-05, momentum=0.1, affine=True, track_running_stats=True) (linear8): Linear(in_features=29, out_features=66, bias=True) (leaky_relu9): LeakyReLU(negative_slope=0.8978522263407294) (batchnorm1D10): BatchNorm1d(66, eps=1e-05, momentum=0.1, affine=True, track_running_stats=True) (linear11): Linear(in_features=66, out_features=10, bias=True) (dropout12): Dropout(p=0.4530235549625041, inplace=False) (batchnorm1D13): BatchNorm1d(10, eps=1e-05, momentum=0.1, affine=True, track_running_stats=True) )",1024,512,CrossEntropyLoss(),404,893955,"Adam ( Parameter Group 0 amsgrad: False betas: (0.9, 0.999) eps: 1e-08 initial_lr: 0.001 lr: 0.001 weight_decay: 0 )",512,"[… ","[… ","[… ",… 467,test_467,"Sequential( (flatten0): Flatten() (linear1): Linear(in_features=3072, out_features=29, bias=True) (selu2): SELU() (dropout3): Dropout(p=0.1343545597143212) (linear4): Linear(in_features=29, out_features=79, bias=True) (tanh5): Tanh() (dropout6): Dropout(p=0.44267246786508974) (linear7): Linear(in_features=79, out_features=252, bias=True) (leaky_relu8): LeakyReLU(negative_slope=0.3684951495419898) (dropout9): Dropout(p=0.3323157895864284) (linear10): Linear(in_features=252, out_features=10, bias=True) (selu11): SELU() (tanh12): Tanh() )",1024,512,CrossEntropyLoss(),550,114177,"Adam ( Parameter Group 0 amsgrad: False betas: (0.9, 0.999) eps: 1e-08 initial_lr: 0.001 lr: 0.001 weight_decay: 0 )",512,"[0.0003059478185605258, -4.6543450355529785, -0.010367356240749359, 0.023849185556173325, 0.001770967384800315, -0.24302323162555695, -0.03650900721549988, -0.5086266994476318]","[0.19448719918727875, 1.1231721639633179, 0.17838336527347565, 1.0533908605575562, 0.10094776004552841, 0.47008538246154785, 0.06340442597866058, 0.27604538202285767]","[58.049530029296875, 25.759416580200195, 8.550759315490723, 9.305710792541504, 14.245128631591797, 8.387445449829102, 3.672276020050049, 1.8090938329696655]",… 468,test_468,"Sequential( (conv0): Conv2d(3, 30, kernel_size=(1, 1), stride=(1, 1)) (selu1): SELU() (dropout2): Dropout2d(p=0.293784110486927) (conv3): Conv2d(30, 27, kernel_size=(11, 11), stride=(1, 1)) (tanh4): Tanh() (dropout5): Dropout2d(p=0.577429406901554) (flatten6): Flatten() (linear7): Linear(in_features=13068, out_features=29, bias=True) (leaky_relu8): LeakyReLU(negative_slope=0.20084835010944968) (batchnorm1D9): BatchNorm1d(29, eps=1e-05, momentum=0.1, affine=True, track_running_stats=True) (linear10): Linear(in_features=29, out_features=86, bias=True) (tanh11): Tanh() (dropout12): Dropout(p=0.2942986287506012) (linear13): Linear(in_features=86, out_features=10, bias=True) (batchnorm1D14): BatchNorm1d(10, eps=1e-05, momentum=0.1, affine=True, track_running_stats=True) )",1024,512,CrossEntropyLoss(),556,480686,"Adam ( Parameter Group 0 amsgrad: False betas: (0.9, 0.999) eps: 1e-08 initial_lr: 0.001 lr: 0.001 weight_decay: 0 )",512,"[-0.0025618216022849083, 0.035185862332582474, -1.0713632946135476e-05, -0.49070048332214355, 0.0004142401448916644, -1.68726646900177, 0.8156416416168213, 0.07622606
…
4613857269, 0.19610874354839325, 1.5179569721221924, 0.21901656687259674, 1.9562731981277466, 0.14740821719169617, 0.04749803617596626, 0.28587716817855835, 0.17619384825229645, 0.23735405504703522, 0.06588591635227203, 0.39331555366516113, 0.4757400155067444]","[1.6459368467330933, 0.46412867307662964, 61.394569396972656, 8.149250030517578, 134.8282012939453, 13.773719787597656, 4.461085796356201, 0.48132291436195374, 14.276206970214844, 1.629806399345398, 6.9567389488220215, 0.2060941606760025, 8.832493782043457, 1.4272363185882568]",… 469,test_469,"Sequential( (flatten0): Flatten() (linear1): Linear(in_features=3072, out_features=29, bias=True) (relu2): ReLU() (dropout3): Dropout(p=0.8427536388142589, inplace=False) (linear4): Linear(in_features=29, out_features=101, bias=True) (selu5): SELU() (batchnorm1D6): BatchNorm1d(101, eps=1e-05, momentum=0.1, affine=True, track_running_stats=True) (linear7): Linear(in_features=101, out_features=35, bias=True) (selu8): SELU() (batchnorm1D9): BatchNorm1d(35, eps=1e-05, momentum=0.1, affine=True, track_running_stats=True) (linear10): Linear(in_features=35, out_features=10, bias=True) )",1024,512,CrossEntropyLoss(),438,96349,"Adam ( Parameter Group 0 amsgrad: False betas: (0.9, 0.999) eps: 1e-08 initial_lr: 0.001 lr: 0.001 weight_decay: 0 )",512,"[0.0028710232581943274, 1.3275409936904907, -0.10320401191711426, 0.9761475324630737, 0.9641664624214172, 0.05159001052379608, -0.026822654530405998, -0.14627328515052795, 0.7241641283035278,
…
2710227966, 1.483213186264038, 0.15760982036590576, 0.3498276174068451, 0.20455873012542725, 0.4528875946998596, 0.20251762866973877, 0.07342958450317383, 0.16547314822673798, 0.11497965455055237]","[54.982791900634766, 9.267899513244629, 25.640920639038086, 17.782896041870117, 9.817097663879395, 3.5364882946014404, 12.26462173461914, 2.7789385318756104, 4.443976879119873, 0.47733351588249207, 3.0939812660217285, 0.34982427954673767]",… 470,test_470,"Sequential( (maxpool0): MaxPool2d(kernel_size=1, stride=1, padding=0, dilation=1, ceil_mode=False) (selu1): SELU() (flatten2): Flatten() (linear3): Linear(in_features=3072, out_features=26, bias=True) (tanh4): Tanh() (relu5): ReLU() (linear6): Linear(in_features=26, out_features=229, bias=True) (selu7): SELU() (relu8): ReLU() (linear9): Linear(in_features=229, out_features=114, bias=True) (tanh10): Tanh() (softmax11): Softmax() (dropout12): Dropout(p=0.1842941098776416) (relu13): ReLU() (batchnorm1D14): BatchNorm1d(114, eps=1e-05, momentum=0.1, affine=True, track_running_stats=True) (softmax15): Softmax() (tanh16): Tanh() (relu17): ReLU() (linear18): Linear(in_features=114, out_features=143, bias=True) (relu19): ReLU() (linear20): Linear(in_features=143, out_features=10, bias=True) )",1024,512,CrossEntropyLoss(),445,130414,"Adam ( Parameter Group 0 amsgrad: False betas: (0.9, 0.999) eps: 1e-08 initial_lr: 0.001 lr: 0.001 weight_decay: 0 )",512,"[-0.0024319409858435392, -0.37256547808647156, -0.022356156259775162, -0.04613541439175606, -0.051583003252744675, -0.09911680966615677, 1.489281415939331, -0.06065664812922478, -0.02767062
…
71948242, 0.11140824109315872, -0.07380952686071396, 0.019634297117590904]","[0.19334669411182404, 0.9270122647285461, 0.2833372950553894, 0.21045057475566864, 0.2981308698654175, 0.1542225331068039, 0.11758804321289062, 0.22135613858699799, 0.49624916911125183, 0.1236853078007698, 0.5640523433685303, 0.03917209804058075]","[54.64691162109375, 5.00926399230957, 21.929039001464844, 3.253523349761963, 48.88483810424805, 1.9513100385665894, 15.950226783752441, 2.4405465126037598, 63.45722198486328, 1.9867587089538574, 21.5042781829834, 0.13291025161743164]",… 471,test_471,"Sequential( (batchnorm0): BatchNorm2d(3, eps=1e-05, momentum=0.1, affine=True, track_running_stats=True) (conv1): Conv2d(3, 31, kernel_size=(1, 1), stride=(1, 1)) (selu2): SELU() (batchnorm3): BatchNorm2d(31, eps=1e-05, momentum=0.1, affine=True, track_running_stats=True) (conv4): Conv2d(31, 31, kernel_size=(13, 13), stride=(1, 1)) (relu5): ReLU() (maxpool6): MaxPool2d(kernel_size=3, stride=3, padding=0, dilation=1, ceil_mode=False) (flatten7): Flatten() (linear8): Linear(in_features=1116, out_features=32, bias=True) (tanh9): Tanh() (dropout10): Dropout(p=0.060647285956238806) (linear11): Linear(in_features=32, out_features=58, bias=True) (tanh12): Tanh() (batchnorm1D13): BatchNorm1d(58, eps=1e-05, momentum=0.1, affine=True, track_running_stats=True) (linear14): Linear(in_features=58, out_features=10, bias=True) )",1024,512,CrossEntropyLoss(),556,200996,"Adam ( Parameter Group 0 amsgrad: False betas: (0.9, 0.999) eps: 1e-08 initial_lr: 0.001 lr: 0.001 weight_decay: 0 )",512,"[… ","[… ","[… ",… 472,test_472,"Sequential( (batchnorm0): BatchNorm2d(3, eps=1e-05, momentum=0.1, affine=True, track_running_stats=True) (conv1): Conv2d(3, 28, kernel_size=(1, 1), stride=(1, 1)) (relu2): ReLU() (batchnorm3): BatchNorm2d(28, eps=1e-05, momentum=0.1, affine=True, track_running_stats=True) (flatten4): Flatten() (linear5): Linear(in_features=28672, out_features=27, bias=True) (tanh6): Tanh() (batchnorm1D7): BatchNorm1d(27, eps=1e-05, momentum=0.1, affine=True, track_running_stats=True) (linear8): Linear(in_features=27, out_features=120, bias=True) (relu9): ReLU() (dropout10): Dropout(p=0.8419201308258223, inplace=False) (linear11): Linear(in_features=120, out_features=216, bias=True) (relu12): ReLU() (batchnorm1D13): BatchNorm1d(216, eps=1e-05, momentum=0.1, affine=True, track_running_stats=True) (linear14): Linear(in_features=216, out_features=10, bias=True) (softmax15): Softmax(dim=None) (dropout16): Dropout(p=0.594366056983485, inplace=False) )",1024,512,CrossEntropyLoss(),547,806497,"Adam ( Parameter Group 0 amsgrad: False betas: (0.9, 0.999) eps: 1e-08 initial_lr: 0.001 lr: 0.001 weight_decay: 0 )",512,"[… ","[… ","[… ",… 473,test_473,"Sequential( (conv0): Conv2d(3, 26, kernel_size=(1, 1), stride=(1, 1)) (relu1): ReLU() (batchnorm2): BatchNorm2d(26, eps=1e-05, momentum=0.1, affine=True, track_running_stats=True) (conv3): Conv2d(26, 30, kernel_size=(13, 13), stride=(1, 1)) (selu4): SELU() (batchnorm5): BatchNorm2d(30, eps=1e-05, momentum=0.1, affine=True, track_running_stats=True) (flatten6): Flatten() (linear7): Linear(in_features=12000, out_features=31, bias=True) (tanh8): Tanh() (dropout9): Dropout(p=0.010620220969533856) (linear10): Linear(in_features=31, out_features=10, bias=True) (tanh11): Tanh() )",1024,512,CrossEntropyLoss(),550,504417,"Adam ( Parameter Group 0 amsgrad: False betas: (0.9, 0.999) eps: 1e-08 initial_lr: 0.001 lr: 0.001 weight_decay: 0 )",512,"[-0.020382605493068695, -0.09967242926359177, 0.5672694444656372, 0.16669008135795593, -0.028875133022665977, -0.20890021324157715, 0.20364631712436676, 0.01850026100873947,
…
0063257, 0.074439637362957, -0.0810372605919838, -5.205565929412842]","[0.3941937983036041, 0.39008215069770813, 0.31026679277420044, 0.09781740605831146, 0.2222251296043396, 0.1604979783296585, 0.06874550133943558, 0.020644908770918846, 0.20903180539608002, 0.39291858673095703, 1.6062357425689697, 0.4817819893360138]","[3.463717222213745, 2.01554012298584, 3.2822699546813965, 0.9806278944015503, 81.36128997802734, 1.4339481592178345, 1.1752476692199707, 0.15042588114738464, 127.50172424316406, 2.1916496753692627, 28.271074295043945, 16.524776458740234]",… 474,test_474,"Sequential( (batchnorm0): BatchNorm2d(3, eps=1e-05, momentum=0.1, affine=True, track_running_stats=True) (conv1): Conv2d(3, 32, kernel_size=(1, 1), stride=(1, 1)) (leaky_relu2): LeakyReLU(negative_slope=0.6793011782615739) (batchnorm3): BatchNorm2d(32, eps=1e-05, momentum=0.1, affine=True, track_running_stats=True) (flatten4): Flatten() (linear5): Linear(in_features=32768, out_features=27, bias=True) (selu6): SELU() (dropout7): Dropout(p=0.3506448336495548, inplace=False) (linear8): Linear(in_features=27, out_features=247, bias=True) (leaky_relu9): LeakyReLU(negative_slope=0.4295705498861163) (batchnorm1D10): BatchNorm1d(247, eps=1e-05, momentum=0.1, affine=True, track_running_stats=True) (linear11): Linear(in_features=247, out_features=10, bias=True) (selu12): SELU() (batchnorm1D13): BatchNorm1d(10, eps=1e-05, momentum=0.1, affine=True, track_running_stats=True) )",1024,512,CrossEntropyLoss(),438,894871,"Adam ( Parameter Group 0 amsgrad: False betas: (0.9, 0.999) eps: 1e-08 initial_lr: 0.001 lr: 0.001 weight_decay: 0 )",512,"[… ","[… ","[… ",… 475,test_475,"Sequential( (batchnorm0): BatchNorm2d(3, eps=1e-05, momentum=0.1, affine=True, track_running_stats=True) (flatten1): Flatten() (linear2): Linear(in_features=3072, out_features=27, bias=True) (relu3): ReLU() (dropout4): Dropout(p=0.22121959611779018, inplace=False) (linear5): Linear(in_features=27, out_features=165, bias=True) (relu6): ReLU() (dropout7): Dropout(p=0.7613443539449212, inplace=False) (linear8): Linear(in_features=165, out_features=64, bias=True) (selu9): SELU() (dropout10): Dropout(p=0.3730846645162871, inplace=False) (linear11): Linear(in_features=64, out_features=10, bias=True) )",1024,512,CrossEntropyLoss(),404,98871,"Adam ( Parameter Group 0 amsgrad: False betas: (0.9, 0.999) eps: 1e-08 initial_lr: 0.001 lr: 0.001 weight_decay: 0 )",512,"[0.4969879984855652, 0.04184473678469658, 7.438944976456696e-06, -0.6264086961746216, -0.11110413819551468, 0.024506617337465286, -0.13510362803936005, 0.7994053959846497, 0.00271374895237386
…
